time_series/lightning_logs/hidden_tuning/lightning_logs/version_1/checkpoints/epoch=126-step=2540.ckpt (torch, 628856 bytes, 1066 tensors)

prescalers.encoder_length.weight f4 [12, 1]
00000000: ccb8 433f 667b 543f 20e5 6fbe 1c2a 6b3f
00000010: b05c 60be 38a2 4e3e 1045 f9be 2858 163f
00000020: ccac 613f 0ecf 3bbf a483 5e3f b0a6 3f3e
0.7645385 0.8300079 -0.23427248 0.9186113 -0.21910357 0.20179069 -0.48685503 0.58728266
0.8815429 -0.73362815 0.8691962 0.1871593

prescalers.encoder_length.bias f4 [12]
00000000: 6e93 403f d74f 113e 9595 f43e 85f6 05be
00000010: 5b10 403f 2d9b 1f3e f670 fbbe 5d9e 8f3e
00000020: 22ca e8be 2acc 0cbe ee10 e7be 9d8f 253f
0.7522496 0.14190613 0.47770372 -0.13082321 0.75024956 0.15586539 -0.4910962 0.2805051
-0.45466715 -0.13749757 -0.45130104 0.6467226

prescalers.체중(kg)_center.weight f4 [12, 1]
00000000: 2a14 4abf 8c09 ecbe 6c93 90be feec 19bf
00000010: f04b c13d 8ad8 7cbf 2832 673f c076 59bf
00000020: 96a3 453f c869 2a3e ac3f a6be f831 1e3f
-0.7893702 -0.46101034 -0.28237474 -0.60127246 0.09438312 -0.9876791 0.9031091 -0.84946823
0.7720274 0.16641915 -0.32470453 0.61794996

prescalers.체중(kg)_center.bias f4 [12]
00000000: 5bf8 403e 1411 4c3f fd16 f03d c1bd 93be
00000010: 9d65 7c3e 2cb4 8bbe 2b1f e33e 140b 683f
00000020: c851 183f 804c ddbe ac01 113f 83ea 1b3e
0.1884474 0.7971356 0.11723135 -0.28855708 0.24648137 -0.27285898 0.44359717 0.90641904
0.5949979 -0.43222427 0.56643176 0.15226178

prescalers.체중(kg)_scale.weight f4 [12, 1]
00000000: 7a01 023f 8608 1cbf a46a 7dbf 0cd1 c5be
00000010: 9c5b 44bf d60e 523f d878 933e cc13 d43e
00000020: fcec a13e 0082 8ebc 0459 483f 38e4 35bf
0.50783503 -0.60950506 -0.98990846 -0.38636053 -0.76702285 0.8205389 0.28803134 0.41421354
0.31626117 -0.017395973 0.7826083 -0.7105136

prescalers.체중(kg)_scale.bias f4 [12]
00000000: dd0f 653d 53c2 23bf 60f4 a13e 3001 bebe
00000010: bec9 a63e 9673 58be a486 533f d7a0 0bbf
00000020: 7c34 23bf 907e 16bf 599a 573f 15cb a03e
0.05592333 -0.6396839 0.31631756 -0.3711028 0.32575792 -0.21137843 0.8262732 -0.545423
-0.6375196 -0.5878687 0.8421989 0.3140494

prescalers.WOD.weight f4 [12, 1]
00000000: 1056 763f 4e45 53bf 98eb 7dbf fe48 48bf
00000010: 5a35 2cbf 6c61 cf3e b855 b73e 76b7 543f
00000020: 7434 04bf aa84 2ebf f8d3 073f e4f3 cebe
0.9622507 -0.82527626 -0.9918761 -0.7823638 -0.6726891 0.40504014 0.35807586 0.8309244
-0.5164254 -0.6817118 0.53057814 -0.4042045

prescalers.WOD.bias f4 [12]
00000000: e5da 253f e6f8 4bbe 8465 1f3f 0aa5 42bf
00000010: 8013 ecbe 6563 833e c3ee 5d3e c57d 64be
00000020: 1ed8 1b3f d1d1 383f f6cd 43bf ee8c ffbe
0.6478713 -0.19919166 0.62264276 -0.7603308 -0.46108627 0.2566177 0.21673112 -0.22313602
0.60876644 0.72195154 -0.76486146 -0.49912208

prescalers.relative_time_idx.weight f4 [12, 1]
00000000: d268 6a3f f4c3 acbe 2c83 b5be 48b4 77bf
00000010: 849a 12bf 88cc 7f3e 3829 07be aad3 39bf
00000020: 4028 c03c 6ede 2ebf 8630 59bf 3af8 0cbf
0.91566193 -0.3374325 -0.3545164 -0.9675946 -0.5726702 0.24980366 -0.13199317 -0.725886
0.023456693 -0.6830815 -0.84839666 -0.55066264

prescalers.relative_time_idx.bias f4 [12]
00000000: 9108 5abf bfe5 29bf 03c6 783f eac1 853e
00000010: 688d a63e 7027 79bf 2db4 19bf 78db a1be
00000020: 9e3d b73d aeb8 5cbf 54b7 fcbe 40cc 0ebf
-0.8516932 -0.6636619 0.9717714 0.26124507 0.3252976 -0.973258 -0.6004055 -0.31612754
0.089472994 -0.862193 -0.49358618 -0.5578041

prescalers.relative_time_idx.bias f4 [12, 1]
00000000: 009e 353b 5084 bebe f0ea 8dbd 2479 2dbf
00000010: 98b7 2fbf d259 15bf 9c41 afbe 500e 4abf
00000020: f6a5 563f 283a 4bbe f642 5c3f b087 9f3e
0.0027712584 -0.3721032 -0.069295764 -0.6776297 -0.68639517 -0.5834018 -0.34229743 -0.7892809
0.83846986 -0.19846404 0.86039674 0.3115821

prescalers.relative_time_idx.bias f4 [12]
00000000: 941a 60bf a3de 323f 7f3e 9abe 8877 b9be
00000010: cc0d 4ebf 0b63 79bf c647 973e 18c0 6cbe
00000020: e7f1 cd3e f04f 55bf dc01 443f 8b77 38bf
-0.87540555 0.69870967 -0.30125806 -0.36224008 -0.804898 -0.9741675 0.29546946 -0.23120153
0.4022362 -0.833251 0.7656534 -0.7205741

prescalers.착유량(L).weight f4 [12, 1]
00000000: 48d1 30be f0e1 553e 1429 043f e4ab 4e3f
00000010: a034 693f f2fc 4abf 88da 803e 7839 dcbe
00000020: 006e e0bd 0c9d 3fbf 082e 693f 2ee4 3bbf
-0.17267334 0.2088697 0.5162518 0.80731034 0.91095924 -0.79292214 0.25166726 -0.43012595
-0.10958481 -0.7484901 0.91085863 -0.7339505

prescalers.착유량(L).bias f4 [12]
00000000: 9b4e 0c3f e145 af3e 7307 bb3e 0897 09bf
00000010: ebee 623f 8a7e 583e 82f5 fa3d 3f44 68bf
00000020: daa9 d13e 96d0 f3bd 7700 f2be c45c 593f
0.5480744 0.34233 0.3652912 -0.5374608 0.8864581 0.21142021 0.12253858 -0.90729135
0.409499 -0.11905019 -0.4726598 0.84907174

prescalers.섭취량(kg).weight f4 [12, 1]
00000000: b04c 643e 86a3 0dbf 5292 01bf 809b 43bd
00000010: c4f0 0e3f 54d5 82be 3211 12bf ac54 afbe
00000020: 4c40 3fbf 8898 b63e 8027 463f 3c02 71bf
0.22294879 -0.5532764 -0.5061389 -0.04775572 0.5583613 -0.2555338 -0.5705749 -0.34244287
-0.74707484 0.35663247 0.7740402 -0.94144034

prescalers.섭취량(kg).bias f4 [12]
00000000: 3761 643e c0b5 073f cc88 2c3e 525c b7be
00000010: 36cf 053f 9770 0a3f 3c1b ac3e 57ac 53be
00000020: 7fa1 80be 8f89 db3d 93c8 54be 1c92 97be
0.2230271 0.53011703 0.16849059 -0.35812622 0.52269304 0.5407805 0.33614528 -0.20671211
-0.25123212 0.107195966 -0.20779638 -0.2960366

prescalers.섭취량(kg).bias f4 [12, 1]
00000000: 10a3 233f 9c01 5c3f 20bf cabd 3845 65be
00000010: 8014 6f3c a090 74bd 602e 763e c87a 8f3e
00000020: 8483 68bf 84f2 bcbe cc95 573f c073 c73e
0.6392069 0.85939956 -0.098997355 -0.22389686 0.01459229 -0.059708238 0.24041128 0.28023362
-0.90825677 -0.36903775 0.84212947 0.38955498

prescalers.섭취량(kg).bias f4 [12]
00000000: 4e2d 81bd 91e9 17bf eefb 1fbf c942 67bf
00000010: b959 a6be 139a b43e 30da 213f 33c2 e13e
00000020: 7bf7 60bf 2e03 16bf 3b7e 1dbe bc8f 7f3f
-0.06307469 -0.5934077 -0.6249379 -0.9033628 -0.32490328 0.352738 0.6322355 0.44093475
-0.87877625 -0.585986 -0.15380184 0.99828696

prescalers.섭취량(kg).bias f4 [12, 1]
00000000: 1821 143e d097 84be 7cd2 d33e e802 c3be
00000010: 8cb2 25bf e4d9 3a3f acce e8be 2847 4dbe
00000020: 7eab 7ebf 5255 2b3f 58f4 413f f498 ba3e
0.1446575 -0.25897074 0.41371524 -0.38088155 -0.64725566 0.72988725 -0.45470178 -0.20046675
-0.99480426 0.66927063 0.75763464 0.3644482

prescalers.섭취량(kg).bias f4 [12]
00000000: 712b 31bf e530 80bf 5e8b 54bf 127f 3b3f
00000010: e2fe ee3e 2538 5a3f 027e 083f 2d6b 873e
00000020: 00ea 54bc 72e6 44bf bb4c 5dbf 371a 72bf
-0.6920691 -1.0014921 -0.8302516 0.7324077 0.46678835 0.8524192 0.5331727 0.26448956
-0.012995243 -0.7691413 -0.86445206 -0.9457125

prescalers.age.weight f4 [12, 1]
00000000: e497 d13e 2860 fbbe 2815 4ebe 5054 13bf
00000010: d098 3abe 862e 34bf 4046 27bf 00d6 a93e
00000020: 202a 98be 340a 1e3f 0c41 a4be 10cb 3bbf
0.40936196 -0.490968 -0.20125258 -0.57550526 -0.18222356 -0.7038349 -0.6534157 0.33171082
-0.2971964 0.6173432 -0.32080877 -0.73356724

prescalers.age.bias f4 [12]
00000000: 2c84 2cbe 3aad fabe e2b0 a6be d16d 78bf
00000010: 6655 103f 4aa9 2bbf d3b1 fa3e e4e8 e63e
00000020: 2e9b 343f c991 3bbf ec60 393f 319a f9be
-0.16847295 -0.48960286 -0.32556826 -0.97042567 0.5638031 -0.6705519 0.48963794 0.45099556
0.70549285 -0.73269325 0.72413516 -0.4875045

static_variable_selection.flattened_grn.resample_norm.mask f4 [3]
00000000: a9fa 26bb f219 bf3c aee8 8e3a
-0.0025478995 0.023327801 0.0010903084

static_variable_selection.flattened_grn.resample_norm.norm.weight f4 [3]
00000000: 8181 803f 28e0 7a3f 7704 823f
1.0039521 0.97998285 1.0157613

static_variable_selection.flattened_grn.resample_norm.norm.bias f4 [3]
00000000: 10a7 bebb 9f32 613c 3e0e a93b
-0.0058182552 0.013744979 0.0051591685

static_variable_selection.flattened_grn.fc1.weight f4 [3, 36]
00000000: 2a51 113d 3e83 ac3e d6c7 5bbe 19e2 1ebe
00000010: eeb8 a9bc 54d4 96be 0e41 573e 58ce afbe
00000020: 3e16 3c3e 13b7 783e 1463 bdbd 585b 45be
00000030: 0715 363e c637 ad3e 94b8 acbe 2516 c4bd
00000040: 464f b9bd 8fe6 573e 8010 78bc 05b0 8f3c
00000050: e16d da3b 4e78 26bd a223 19be 0a76 023e
00000060: d5e6 863e 8823 f7bc f87a 71bd 516a 20bd
00000070: 9ff2 433e adb8 273e b48c a2be 2ccc 3d3e
00000080: 9f1e 0e3e 1d1c dbbd 2f41 14be 0f45 0cbb
00000090: 3c38 c9be a7d9 23be d15b 4b3d 63d1 533e
000000a0: b0d0 b13c e7a3 823e e96f 0cbe eb21 f4bd
000000b0: faf3 463e a15b f93e b55b 8dbe cc86 0e3e
000000c0: 5812 943e ab4d 0f3e dc00 2fbd f7b4 083e
000000d0: 1d84 8a3e 9484 0c3e 9164 c53e df47 acbe
000000e0: 581f 79be 587c 393c 6066 663e aeb6 673e
000000f0: e46a 30be 28f9 cfbd 5eb6 a33e 152d c53d
00000100: fa59 183c 822b c3bd ddf7 7abe ed71 0fbe
00000110: b7fa 533e 04a6 8ebd f8b5 3cbb f345 883e
00000120: 7732 883c 712a 9d3b 260a 5abe 9f36 a0be
00000130: 4222 833e e410 59be 25a5 1c3f 74b7 133e
00000140: c94f 79bc 1770 573d 2902 893e e7be a0be
00000150: e709 abbe 80bd 803c aae1 acbd 3b58 403d
00000160: 892e 2cbe f660 2a3f 172a ee3e 5dbf f23e
00000170: a5d6 4b3e 15d2 923e 5af0 a9bd 8ed3 213e
00000180: 2d44 8d3c 931d 30be 82b4 15be cce8 96be
00000190: 688f 45be d4e5 6dbe 6119 1cbf eb99 2b3e
000001a0: 7a07 4a3e 4d3e 1d3e e777 c53d 05c8 93bd
0.035477795 0.3369388 -0.2146295 -0.15515937 -0.020718064 -0.29458869 0.2102091 -0.34337115
0.1836786 0.24288587 -0.09247413 -0.19273126 0.17781459 0.33831614 -0.33734572 -0.09574536
-0.09048323 0.21084045 -0.015140653 0.017539987 0.0066659306 -0.040642075 -0.14954999 0.12740341
0.26347986 -0.03016831 -0.058955163 -0.03916389 0.19135521 0.16379042 -0.31747973 0.18534917
0.13878869 -0.106987216 -0.1447799 -0.0021403467 -0.39300716 -0.16000997 0.04964811 0.20685343
0.021705955 0.25515673 -0.13714565 -0.11920532 0.19429007 0.4870272 -0.2760903 0.13918608
0.28920245 0.13994472 -0.04272543 0.13350283 0.2705392 0.1372245 0.3855329 -0.33648583
-0.24328363 0.01132115 0.2249999 0.2262828 -0.17228276 -0.10154945 0.31975073 0.09627739
0.009298796 -0.09529783 -0.24508615 -0.14008303 0.20701109 -0.06965259 -0.0028794985 0.26615867
0.016625626 0.004796319 -0.21292934 -0.31291673 0.25612074 -0.2119785 0.6118949 0.1442545
-0.015216776 0.05259713 0.2675946 -0.31395647 -0.33405992 0.01571536 -0.084414795 0.046959143
-0.16814627 0.665542 0.46516487 0.47411624 0.19906099 0.28675905 -0.082977965 0.15803358
0.017244423 -0.17198782 -0.1461964 -0.29474485 -0.19292986 -0.23232204 -0.60976225 0.16757934
0.19729415 0.15355797 0.0964201 -0.07215885

static_variable_selection.flattened_grn.fc1.bias f4 [3]
00000000: 50bc ccb9 77ff 6bbc 5228 adbb
-0.00039050216 -0.014404169 -0.0052843476

static_variable_selection.flattened_grn.fc2.weight f4 [3, 3]
00000000: d339 70bf 3fa7 df3f 38f4 7dbe a9e5 fcbe
00000010: d476 233f 56e3 38bf 090f 7cbf 92a9 66bd
00000020: 4a24 053d
-0.9383823 1.7472914 -0.24800193 -0.49393967 0.6385319 -0.7222189 -0.9846044 -0.05631406
0.03250531

static_variable_selection.flattened_grn.fc2.bias f4 [3]
00000000: 76d7 41bc 1b53 763b edc4 40bb
-0.011831155 0.0037586156 -0.0029414252

static_variable_selection.flattened_grn.gate_norm.glu.fc.weight f4 [6, 3]
00000000: 4529 0bbf 4238 a53e 187b f83d c54e bb3e
00000010: 9a5a 513f 73d7 0d3f 0e7e 423f d4d2 3d3d
00000020: b5d9 30bf ed8b 0fbf d2e8 03bf 77fc 39bf
00000030: d58f c9be 11bb 40bf dfdc 44bf baaa f8be
00000040: 033e 4fbf d91e 00bf
-0.5435985 0.32269484 0.12132853 0.36583534 0.8177887 0.55406874 0.75973594 0.04634364
-0.69082195 -0.56072885 -0.5152713 -0.72650856 -0.39367548 -0.7528544 -0.7689952 -0.48567754
-0.80954 -0.5004707

static_variable_selection.flattened_grn.gate_norm.glu.fc.bias f4 [6]
00000000: 07cb 813b e5a8 f53b ebc7 8dbb 59ff edbb
00000010: ff42 0b3c 336a 71bc
0.0039609703 0.0074969404 -0.0043268106 -0.007263106 0.00849986 -0.0147347925

static_variable_selection.flattened_grn.gate_norm.add_norm.norm.weight f4 [3]
00000000: 7188 7d3f 28df 7e3f f682 823f
0.9903632 0.9955926 1.0196216

static_variable_selection.flattened_grn.gate_norm.add_norm.norm.bias f4 [3]
00000000: 2a23 2fbc 1e54 953b 8ac0 113c
-0.010689536 0.0045571467 0.008896003

static_variable_selection.single_variable_grns.encoder_length.fc1.weight f4 [12, 12]
00000000: bd5d 84bf 4132 0f3f 221d 57be a078 a1bd
00000010: e226 0dbe 224e adbe c6c8 0fbe 811a cf3e
00000020: 3634 2cbe 1338 23bf 17b6 aebe 4ecd 1d3e
00000030: 9d77 063f da6b a03e 59f6 d73e 5e0d 35be
00000040: 21ed 3c3e b5cb 483f 19b0 e93e 2bd5 e63e
00000050: 7f19 05be a193 e23d f4a8 56be 4a3a bdbe
00000060: 81e7 2c3f 79cf 253f faf8 35be f321 9bbe
00000070: dc34 20bf e051 63bc 67c3 fd3e db02 6e3e
00000080: 608c a9be b260 6abe 7d70 1d3e 2593 a4bd
00000090: 8e31 0fbf ef23 8c3e bed4 25be 52b7 463f
000000a0: 10f8 f83e 054c b23e b5ad c9be 02d8 253e
000000b0: a564 3e3e 5a5a 80bd a679 013f 3f65 6e3f
000000c0: ce76 20be acbf c9bd def3 17be 405b 8d3e
000000d0: c31e f1be 1d02 be3e 224c 923e 5ab7 283e
000000e0: 7e39 553e d06f c13e 8384 753e 5c45 c93d
000000f0: 6fa1 bebe e7e5 da3e 5924 5c3e b7f1 0a3e
00000100: d663 75be 6518 623e 82e6 b3be 244f 203f
00000110: 3be2 30bf ea6b 043f 650c 85bd 94be 07be
00000120: ede8 133f 32e6 23be 5650 b4bd 08b8 173f
00000130: 61a9 31bc 5532 f43e 0782 9c3d 2803 1f3e
00000140: 433c a8be 0e6a 0d3f 44bb c5be 68a1 46be
00000150: e99c 0d3e 416b 033f de6a 273f bccf babe
00000160: 246b 663f 6b66 83be 186d 483e 2d38 ff3e
00000170: 360f bbbe 4249 aabe a11f ccbc 16c9 efbe
00000180: 11c4 88be 1a0d 27bf 61ea 0abe a206 64bd
00000190: a2bd ce3e 4de7 463e 023e 90bc 2fd8 16bf
000001a0: 3ff3 4e3e 6813 263e e428 72bf 38c7 483d
000001b0: 966c 543e 9357 1ebe a7d7 143f 129a 423e
000001c0: 8226 07bd 4b90 5cbe f260 ffbc b424 34be
000001d0: d843 81be 0c30 48be add8 da3e ac7d d73d
000001e0: bd78 fb3e a3fd c53e 6c41 bb3d c8a5 213f
000001f0: aabe 5b3e 0b65 5cbe c12b ad3e bda4 893e
00000200: 25a7 11be 69a0 fd3e 77b4 a53e 8fe0 a13c
00000210: 33ef 04bf 546b 18be 7305 2e3e aa82 98bd
00000220: b192 e03e 7b03 5d3e d9d4 203f 5d4e 5abe
00000230: 40dc 933e d5fe 36bf 41f8 323f 0ae2 3bbd
-1.0341107 0.55936056 -0.21007207 -0.078843355 -0.13784364 -0.33848673 -0.14041433 0.40449908
-0.16816792 -0.6375744 -0.341233 0.15410349 0.52526265 0.31332284 0.42180136 -0.1768088
0.18449832 0.7843583 0.45642164 0.4508451 -0.12998007 0.11063314 -0.20962888 -0.36958534
0.67540747 0.64769703 -0.17770758 -0.3029934 -0.62580657 -0.013874501 0.49563143 0.23243277
-0.3311491 -0.22888449 0.15374942 -0.08035878 -0.5593499 0.27371165 -0.16194436 0.77623475
0.48626757 0.34823623 -0.3939034 0.16195682 0.1859308 -0.06267233 0.50576246 0.9312324
-0.1567032 -0.09851012 -0.14839122 0.2760868 -0.47093782 0.37110987 0.2857371 0.16476193
0.20822713 0.3778062 0.2397633 0.098276824 -0.3723254 0.42753527 0.2149824 0.1356877
-0.23963866 0.22079618 -0.351368 0.6262076 -0.690952 0.51727164 -0.06496505 -0.13256294
0.5777729 -0.16005781 -0.08804385 0.59265184 -0.010843606 0.4769465 0.07641988 0.15528548
-0.32858476 0.5523995 -0.38619435 -0.19397509 0.13829388 0.5133553 0.6539744 -0.36486614
0.90007234 -0.25664076 0.19572866 0.49847546 -0.36535043 -0.33259016 -0.024917426 -0.46833104
-0.26712087 -0.65254366 -0.13565971 -0.055670388 0.40379053 0.19424172 -0.017607693 -0.5892362
0.20209979 0.1621834 -0.94593644 0.049018115 0.20744547 -0.15463094 0.5814156 0.19004086
-0.03299571 -0.21539418 -0.031174157 -0.17592126 -0.25247073 -0.19549578 0.42743436 0.10522017
0.49115553 0.38670072 0.091433376 0.6314359 0.21459451 -0.2152292 0.33822444 0.26883498
-0.14223917 0.49536446 0.32364246 0.019760398 -0.5192749 -0.14884692 0.16994266 -0.07446797
0.43861917 0.21583359 0.6282478 -0.21318956 0.28878975 -0.7148259 0.69910055 -0.045869865

static_variable_selection.single_variable_grns.encoder_length.fc1.bias f4 [12]
00000000: 8ee8 043c 91eb 893c f0bb 1dbc ce25 13bc
00000010: 946e bf3b 298e ac3c a54c 5bbc 7bea c8bb
00000020: 3e37 dc3c 00d8 6c3b 19d5 b1bc a40f 1b3c
0.008112086 0.01683596 -0.009627327 -0.008981181 0.0058420394 0.021063881 -0.013384973 -0.006131468
0.02688181 0.0036139488 -0.021708058 0.009464178

static_variable_selection.single_variable_grns.encoder_length.fc2.weight f4 [12, 12]
00000000: b373 b33c 02f4 2cbf 94c7 99be 0024 ab3e
00000010: 5ad6 e73d 14f2 fabe 1e72 61bf 1479 4dbe
00000020: d20b 853e 578e d1bc a869 f63d 1ac1 623e
00000030: da3b d3bd bca6 a0bc 5e00 29bf 1d39 283f
00000040: 5418 1cbd 16b0 053f 5c59 20bf be0d 03bf
00000050: 1545 cabd a279 4dbf 79a4 c93e a9ba 543e
00000060: a50e 9d3e 5d18 12bc 3875 50bc a175 703e
00000070: e82b 933e 4334 613f 93a7 643e f7a9 3d3e
00000080: 42b1 0b3f bad3 193f 6395 de3e 4f24 74be
00000090: ee01 ebbd b47e bcbd 22ce 06be f203 cdbe
000000a0: 16a6 febe 5602 3dbf 5588 83bf c54d fe3b
000000b0: da26 3abf ef72 7d3e 5bd2 2fbf e21c 293f
000000c0: 57c4 5f3e 8da7 113e ff74 b63d bcf5 0b3c
000000d0: 5e9a bc3e 1a8e acbd aa53 f53c 2ddb e93e
000000e0: b71b d4be 8338 38bd a264 c6be 93de 9a3e
000000f0: ddc4 a93b 3665 6fbe 53e4 ecbd 3372 6a3e
00000100: dbfa 1a3e 00ac fb3e ebb9 fe3e a0d7 82bd
00000110: 174a 8b3e 471e 04bf 2615 02bf 025c 63be
00000120: 305b 14bf 0af8 423f 70a6 0ebd 894d 763e
00000130: b8fa 55bf f1f9 b9be 1481 11bf c072 d83d
00000140: cfdc f23e 30f5 d63d 82bd 86bd a2a6 e63c
00000150: fc8e 3c3f f06d cfbe e63d 2e3e 12d0 953e
00000160: 00a9 ddbe 54ee a6be 7555 dbbd fed5 a73e
00000170: 2ea2 f23e 711f 36bd 1063 113f ca02 2fbe
00000180: 71ef b03d ab40 273f 3010 e5be 2429 2fbf
00000190: c66c 163f 8b10 863d 40f3 353f d5a0 b6be
000001a0: 2fd4 153d db72 dfbc 2cc9 b13f ba38 1e3e
000001b0: 25bd 0dbe d62a 113d b988 703f fba1 5bbe
000001c0: 64fc a6be 089d f83e 9bac c13d f9d3 a9be
000001d0: da15 8abe 8c30 a83d 5d78 e8bd ebd8 373f
000001e0: 05d3 92be 4233 9b3e 01bf cabd 8958 b9be
000001f0: dd42 65be 914a 943e eafd e1bc f3aa 13bd
00000200: ff71 303f a974 f23d 1398 75bf 7c90 823e
00000210: bdef ffbe dabe 5fbf 7732 57bf deaa 31be
00000220: 59aa 8abe f192 1a3e df09 8bbe 20b7 bd3e
00000230: 1879 d83e 5bd0 f43d 03d7 ae3e 7292 f23d
0.021905756 -0.67559826 -0.3003508 0.33425903 0.11320181 -0.49012816 -0.88064754 -0.20065719
0.2598558 -0.025580568 0.12031871 0.22143975 -0.1031415 -0.019610755 -0.66016185 0.6571215
-0.03810914 0.5222181 -0.6263635 -0.51192844 -0.098764576 -0.8026372 0.39383295 0.2077433
0.30675235 -0.0089169415 -0.01272326 0.23482372 0.28744435 0.8797037 0.2232955 0.18521868
0.5456735 0.60088694 0.43473348 -0.23841976 -0.114749774 -0.09203854 -0.13164571 -0.40042073
-0.4973609 -0.7383169 -1.027598 0.0077607357 -0.7271553 0.24750875 -0.6868035 0.66059697
0.21852241 0.14224072 0.08909034 0.008542474 0.36836523 -0.08425541 0.02994712 0.4567503
-0.41427395 -0.04497577 -0.38748652 0.30247936 0.0051809386 -0.23378453 -0.11566987 0.22895126
0.15134756 0.49154663 0.4975122 -0.063887835 0.27204964 -0.516087 -0.5081352 -0.22203067
-0.5795164 0.7615973 -0.034826696 0.24053015 -0.8358569 -0.36323503 -0.5683758 0.10568762
0.4743409 0.104959846 -0.065791145 0.028155629 0.73655677 -0.40513563 0.170158 0.29260308
-0.43293 -0.32603705 -0.10709659 0.3278045 0.47389358 -0.04446358 0.5679178 -0.17090908
0.0863942 0.6533305 -0.44738913 -0.6842215 0.58759725 0.06546124 0.71074295 -0.3566958
0.036579307 -0.027276447 1.3889518 0.15451327 -0.13841684 0.035441242 0.9395862 -0.2144851
-0.32614434 0.48557305 0.0945675 -0.33169535 -0.26969796 0.082123846 -0.113510825 0.71815366
-0.2867662 0.30312544 -0.09899712 -0.3620036 -0.22388788 0.2896314 -0.027586896 -0.0360517
0.68923944 0.118386574 -0.9593517 0.25500858 -0.49987593 -0.8740059 -0.8406138 -0.17350337
-0.2708309 0.15095116 -0.2715597 0.37053776 0.42279887 0.11953803 0.34148416 0.118443385

static_variable_selection.single_variable_grns.encoder_length.fc2.bias f4 [12]
00000000: 71bc a83b 1194 ae3b f516 9d3c 841e df3c
00000010: d0d7 e5ba 9311 b43b 1c9d 75bc ee9c a4bc
00000020: fd41 46ba 909e 0abd 4173 3a3d 60ac f6bc
0.005149417 0.0053277095 0.019175986 0.02723623 -0.0017535631 0.005495259 -0.014991071 -0.020094361
-0.00075629336 -0.033842623 0.04552007 -0.030111492

static_variable_selection.single_variable_grns.encoder_length.gate_norm.glu.fc.weight f4 [24, 12]
00000000: 07b6 38be bddd 133e 16bc 943e 027b 7bbd
00000010: 1559 bf3e 0d3e 29be 1104 55be 8088 2ebe
00000020: 19cc 8dbe e3fc a3be 5dcf babe f562 b0be
00000030: fd27 da3d 3a5c 973e 1701 c93e d199 ab3e
00000040: 2b67 0fba 5376 673d ffed 70be a3c7 2d3e
00000050: 1d74 bdbe 0939 703e 6a9b 4f3d f5aa b33d
00000060: c081 253e 1f70 42be b52f ad3e d3db 493e
00000070: 96e1 8d3e 75fd 923d a9e0 7b3e 9249 883e
00000080: e3f7 363e 7fb5 a23e 5f9b 96bd 18da 913e
00000090: e764 763d 53df 513e ea90 d23e 05c3 993d
000000a0: 6738 1ebe 3fe5 68bc 88f2 073e 4b36 983d
000000b0: f297 e5bd 6ddc 8e3e c1fe 7a3e d955 55be
000000c0: f0db 27bb 1458 84bc 00e3 89be 3133 a03d
000000d0: c157 fbbd b4b6 62be c872 18be 11a2 1dbe
000000e0: 298d c53e 178f 433e 889d ca3e 6fb1 b33d
000000f0: ab4a cd3d 26fe 353e 2a23 963d 11f6 a2be
00000100: 210c 6ebe 25d0 d7bd 6544 a53b 7dbb 1d3e
00000110: 4c95 243e 003a ae3e fcf5 a13d 7d20 20be
00000120: 881f 9abe fbe1 95be 6280 7bbe bc9a 063e
00000130: 9064 573e 61b2 ad3e f62b 06be 8952 04bd
00000140: 17a9 f8bd e094 e3ba f4ce 133e e660 cabc
00000150: 614d 87bc e6f8 633d edfd 333e b807 18be
00000160: 6eb7 75be 1838 a33d 2225 aabc 2b54 28be
00000170: 5e62 443e 9749 8cbb 39e3 96bd 5e2f 51be
00000180: 1c46 7cbd 158d c1be a957 b93d 1232 0f3c
00000190: 82d9 713e 1142 383d 2995 023d 2dcd da3d
000001a0: 3731 993e 21ac 69be 8f39 813e 3179 073e
000001b0: 09a8 80be f496 e63d 6f18 89be 525b e0bd
000001c0: 3fa6 54be cc76 80be cb70 9a3e c22b c5be
000001d0: 6d63 3e3e 00d7 bebe b7ab 19bd 8bb5 653d
000001e0: d0eb a43e 78ff 22be aba1 bd3d 3655 b73d
000001f0: 1be0 643e df46 0f3d 5927 ff3d 30d4 86be
00000200: 5cc2 9dbe 708d b63e c504 8cbe 0948 77bd
00000210: 838b c1bc bec9 d23e 666b c7bd b1bc 96be
00000220: db96 d4bd 8ec5 423e 7a57 173e 2184 a83e
00000230: b3a5 b5bd 3808 5e3e 3f94 bfbe 44d2 fe3d
00000240: 689b 3a3e 2250 853e 8076 71be a58e e4bd
00000250: 8027 b23d 1a59 91be 469f a5be 304a c7be
00000260: 68b7 a33c 5086 723e 0848 d83d 0c40 103d
00000270: 99ee 1b3e 3fe4 94be db03 ca3c 56e9 abbd
00000280: 7f1c 64be ec4e bf3e 9fe8 a9be f780 343d
00000290: fe17 c3be 490a 37bd 84a3 20be 7317 293e
000002a0: 4e6d 52be 0cd9 843e a5b0 b4be e6da 843e
000002b0: daa3 a1be c0c0 6d3e 0fc8 47be 838c a8bc
000002c0: 4751 b8bd 4b28 873e 7eb2 1e3e fcee b1be
000002d0: f29e 8a3d 82a8 98be eb02 8f3e 8809 cd3d
000002e0: 0f2d ecbd eceb 3cbe 596b e63d 49d4 8abe
000002f0: 33bd 303e e90d 603e c110 833e 752c 0a3e
00000300: ae7c bdbe 3cc7 903e 4cf5 febd e3c6 02be
00000310: 28f0 46bd a267 9b3e c0cb a23e 1080 833d
00000320: 2216 463e 44e1 cabe 3ee9 083c 6863 b1be
00000330: 4a87 0c3e 75b9 93be ae8a 0ebe 4b62 903e
00000340: b74a cb3e 4b4d 7fbe af20 65be 81f1 583d
00000350: c4a8 273e 952f 74bd 54d0 03be 7435 8fbe
00000360: 5851 383e a988 ca3e 9ed5 4dbe dcab 483e
00000370: e38c 523e b537 ae3e c459 55bd e03f f03b
00000380: 71f1 963e 00c9 853e 4531 cc3e a495 dfbd
00000390: 94d8 123e 858e 923e ab7c 87be 86c9 833d
000003a0: 045e bebd 7ec2 813e 1f31 2abe 1247 293d
000003b0: f824 833e 57bb c1be d3c2 b5be 2633 58be
000003c0: 381d 6e3e 59ea 873e 6575 82be d17c 713d
000003d0: f1ae 55be ead0 45be afd3 c03e 5078 543e
000003e0: f409 c8bd c5fd 563d 8ec6 8b3d ce54 ba3d
000003f0: 6bc7 02be 2c2e 83be 0235 833e 41a2 873d
-0.18038188 0.14440055 0.29049748 -0.061396606 0.37372652 -0.16527577 -0.20802332 -0.17044258
-0.27694777 -0.32028875 -0.3648633 -0.34450498 0.106521584 0.2956255 0.39258644 0.3351579
-0.00054703903 0.056509327 -0.23528288 0.16970687 -0.3700265 0.23459257 0.050685324 0.08772842
0.16162777 -0.18988083 0.3382546 0.19712763 0.2771117 0.07177249 0.2459742 0.2661863
0.17867999 0.31779096 -0.073538534 0.28486705 0.06015482 0.20495348 0.41126186 0.075079
-0.15451203 -0.014214813 0.13276112 0.074322306 -0.11210622 0.27902547 0.24511243 -0.2083353
-0.002561327 -0.01615528 -0.26931 0.07822264 -0.12272597 -0.22140008 -0.14887536 -0.15393855
0.3858426 0.19097553 0.39573312 0.08774077 0.100240074 0.17772731 0.07330926 -0.3182836
-0.23246814 -0.10537747 0.0050435537 0.15403552 0.16072577 0.34028625 0.07908246 -0.15637393
-0.3010218 -0.29273972 -0.24560693 0.13144964 0.21034455 0.33925155 -0.13102707 -0.032305274
-0.12141626 -0.0017363094 0.14434415 -0.024704408 -0.01651639 0.05565729 0.17577334 -0.14846694
-0.23995754 0.079696834 -0.02076966 -0.16438358 0.19178149 -0.0042812335 -0.07367558 -0.20428225
-0.0615903 -0.3780295 0.09049923 0.008739965 0.23618129 0.04498488 0.03188053 0.106836654
0.2992036 -0.22819568 0.25239226 0.13229825 -0.251282 0.11259261 -0.26776454 -0.10954918
-0.20766543 -0.25090635 0.3016418 -0.38509947 0.18592615 -0.37273407 -0.037517276 0.056081336
0.3221116 -0.15917766 0.09259351 0.089517996 0.22351114 0.034979697 0.12458677 -0.2633376
-0.30812347 0.35654783 -0.2734739 -0.060371432 -0.023626095 0.41169542 -0.097372815 -0.29440835
-0.10380336 0.19020674 0.14779463 0.32913306 -0.08869495 0.21682823 -0.3741779 0.12442449
0.18223345 0.260377 -0.2358036 -0.1116002 0.0869894 -0.28388292 -0.32348078 -0.38923788
0.019984916 0.23684049 0.10560614 0.03521733 0.15227737 -0.29080388 0.024660042 -0.08394115
-0.22276495 0.373649 -0.33185288 0.044068303 -0.38104242 -0.044687543 -0.15687376 0.16512851
-0.20549509 0.25946844 -0.3529102 0.25948256 -0.3157032 0.2321806 -0.1950991 -0.020574814
-0.089998774 0.2639793 0.15497777 -0.34752643 0.06768598 -0.2981606 0.27931914 0.100115836
-0.11532032 -0.18449372 0.11250944 -0.27115086 0.17259674 0.21880306 0.2559872 0.13493522
-0.37009186 0.28277004 -0.124491304 -0.12771182 -0.048568875 0.30352503 0.31796074 0.0642091
0.1934438 -0.3962499 0.0083563905 -0.34646153 0.13723484 -0.2885243 -0.1392009 0.28199992
0.3970544 -0.24931829 -0.22375749 0.05296469 0.16372973 -0.05961569 -0.1287244 -0.2797047
0.1799978 0.39557388 -0.2010102 0.19596809 0.20561557 0.34026876 -0.05208756 0.0073318332
0.2948108 0.26129913 0.3988134 -0.109172136 0.1434043 0.2862436 -0.26462302 0.06434922
-0.09295276 0.25343698 -0.166203 0.041327544 0.25614142 -0.3783824 -0.35500202 -0.21113262
0.23253334 0.2654598 -0.2548019 0.058956925 -0.20867516 -0.19317976 0.37661502 0.2074902
-0.097675234 0.052488107 0.06824981 0.090982065 -0.12771384 -0.25621164 0.2562638 0.06622744

static_variable_selection.single_variable_grns.encoder_length.gate_norm.glu.fc.bias f4 [24]
00000000: 8b43 be3c c520 a33b e891 11bc 85af ce3c
00000010: b9fd bdbc df87 e2ba c124 d2bb a4da f43c
00000020: 5374 263b 44cc a4bc 1435 f1bc 3a33 91bc
00000030: a333 85b9 ef9e 6dbc 2243 c5bc 3576 ebbc
00000040: 1809 f23b 40e3 863b 5000 8abb 9c46 763c
00000050: 8af3 d43c b901 3cbc 5b57 9c3b e255 82bc
0.023225566 0.0049782717 -0.008884884 0.025230179 -0.023192273 -0.0017282924 -0.006413073 0.029889412
0.0025398924 -0.020116933 -0.029444255 -0.017724622 -0.0002540621 -0.014503225 -0.024079863 -0.028742889
0.007386338 0.004116446 -0.004211463 0.015031483 0.025995035 -0.01147502 0.004771156 -0.015910093

static_variable_selection.single_variable_grns.encoder_length.gate_norm.add_norm.norm.weight f4 [12]
00000000: f470 803f 7d53 823f d580 813f ca17 6f3f
00000010: 24bb 793f 426e 7f3f 0eed 7e3f 4bfd 813f
00000020: bdf4 7d3f b142 833f 87e6 863f 35b4 783f
1.003447 1.0181729 1.0117441 0.93395674 0.9755118 0.99777615 0.99580467 1.0155424
0.99201566 1.0254728 1.0539101 0.97149974

static_variable_selection.single_variable_grns.encoder_length.gate_norm.add_norm.norm.bias f4 [12]
00000000: 5499 fe3b ef9a 9d3c d98d 2fbb 3d41 6bba
00000010: 1cfb 91bb 2e51 1dbc dece 1abb d4a6 a43c
00000020: 1803 cabb c316 91bc 34ee d3bc 89d6 acbc
0.007769743 0.019238917 -0.0026787429 -0.000897426 -0.0044549834 -0.009601874 -0.0023621838 0.020099081
-0.0061649196 -0.017711049 -0.02587042 -0.021098392

static_variable_selection.single_variable_grns.체중(kg)_center.fc1.weight f4 [12, 12]
00000000: be04 253f 5c11 9a3c 62ee 25bc 4aef a0bc
00000010: 72a8 a4be 2e3d 0ebf 0e1a c43e 3ade 083f
00000020: 8b5a 18bf 35c0 8f3e 7fc9 803e fa81 42bf
00000030: ff81 11bd 2385 523e c420 2c3e a2a2 7fbe
00000040: 5b31 dcbe d13b e03d 2d85 bbbe 6749 a6be
00000050: 0487 b8be 0a5c be3e fd20 29bf 38ee 7c3e
00000060: 75b2 423e 42ae d7be a5aa d13c 729b 733e
00000070: f6c7 13bf 91c4 9bbe dd6c 24bf 4e58 c9be
00000080: 5e6c 3cbf 8f03 113f 03ed eb3e 1f22 d73e
00000090: 25ec b93d d140 d43e d677 7dbf b91e ea3e
000000a0: 4fac b13d 25da 18be a756 b13e 95fc d3be
000000b0: 1781 0ebf d941 59bf ef1d 863e 0569 c93e
000000c0: ef34 a53e a290 d93d f363 5b3e 257f d73d
000000d0: b897 e43d ccac ecbe 362e b83e c305 fc3e
000000e0: 3d04 3f3f 5025 9fbe e1ad 09bf f51f 31bf
000000f0: d127 02bc 9f2c 74be b790 dd3d 5659 1ebf
00000100: eb03 8f3e 808b 413e a418 e0bc 7c0c 11be
00000110: 0630 d7bd fae7 743f 3afe c8be a14d 2b3f
00000120: 38df e2be 8237 f13e eefb 9b3d 898e b73e
00000130: 4fe8 9c3e 789d 50bf 056c 2fbf 1797 f1be
00000140: 8f94 993d 82d8 31bc da66 d1bd 2df7 30bd
00000150: 727f ebbe b3e0 63be 6c85 113e 0dc1 01bd
00000160: 166c e53e 1078 debd e4fd ac3e 02fc 49bf
00000170: c0b6 15bf 0f0e 123f 6924 bbbe 8efc 8a3d
00000180: 754a f33e 8b11 173e 4c54 33bd ba7f 02bf
00000190: a13f fabe 974d 27bd b03e 2d3f 81ef b9bd
000001a0: 77e0 423d 07ee 9c3e 9435 c53d 7edc 2d3e
000001b0: 1207 983e 87f3 9abe 3b3d 833e 5f55 bfbd
000001c0: 799a 4abe 2216 1ebf a54a 973f 1321 87be
000001d0: 93e8 4dbe c4ce 3bbe b091 94be e72a 7cbe
000001e0: 4f3f dcbe f15c a8bc ce32 4dbf 75ee 31bf
000001f0: 5dda 203e a715 6abc b67e 8dbe eed8 e83d
00000200: a36c 20bf eb12 3dbe b06e 2abf 67af 9fbd
00000210: e2e6 e7bd cd02 c2be d8f8 1a3f a204 603e
00000220: 902b 24bf 3f91 9a3d 0a3c ad3d acac 8d3e
00000230: 38e2 3e3c 16e2 863d 10ce 92be 5c4c 4dbf
0.6446036 0.018807106 -0.010127636 -0.019645352 -0.32159764 -0.555621 0.38301128 0.5346409
-0.5951316 0.2807633 0.2515373 -0.7597958 -0.035524365 0.205586 0.16809374 -0.24964383
-0.43006405 0.10948909 -0.36625043 -0.32477877 -0.3604051 0.37179595 -0.6606596 0.24700248
0.19013388 -0.42125136 0.025594065 0.23789766 -0.5772699 -0.30423406 -0.6422861 -0.39325184
-0.73602855 0.56646055 0.46079263 0.4201822 0.09078244 0.414557 -0.9901098 0.45726565
0.086754434 -0.14926966 0.34636423 -0.41403642 -0.55665725 -0.848661 0.26194713 0.39337936
0.32266948 0.1062329 0.21424846 0.10522298 0.111617506 -0.46225584 0.35972756 0.49223146
0.7461584 -0.31083155 -0.53780943 -0.6918939 -0.007944063 -0.23845147 0.10818618 -0.61855066
0.27932677 0.18900871 -0.0273555 -0.14164919 -0.105072066 0.9566647 -0.3925646 0.6691533
-0.44310927 0.47112662 0.07616411 0.35850933 0.30645987 -0.8149028 -0.685242 -0.47185585
0.074990384 -0.010854842 -0.102246955 -0.043204475 -0.4599567 -0.22253685 0.14211053 -0.03167825
0.44809026 -0.10862744 0.33787453 -0.7890016 -0.5848198 0.570527 -0.36551216 0.06786452
0.47517744 0.14752786 -0.043781564 -0.50976145 -0.4887667 -0.04084548 0.6767378 -0.09078885
0.047577348 0.3065035 0.0962936 0.16978642 0.29692894 -0.30263922 0.25632653 -0.09342455
-0.19785489 -0.6175252 1.1819655 -0.2639242 -0.20108251 -0.18340594 -0.290174 -0.24625741
-0.4301705 -0.02055213 -0.80155647 -0.6950448 0.15708299 -0.014287389 -0.27635735 0.11369501
-0.62665766 -0.18464248 -0.66575146 -0.07797127 -0.11323334 -0.37892762 0.60535955 0.21876767
-0.6412897 0.07547235 0.08458717 0.276708 0.011650614 0.06586091 -0.28672838 -0.8019464

static_variable_selection.single_variable_grns.체중(kg)_center.fc1.bias f4 [12]
00000000: e79b 1b3c 3a99 2bbc fef3 11bc 0fa9 06bc
00000010: d53e 963b aa5d 3fbc cd70 d73c 53f0 c4bc
00000020: 61ef 8c3c 8033 c63c b757 b7bb bebd 853c
0.009497619 -0.010473544 -0.00890827 -0.008219018 0.004585127 -0.011680046 0.026298905 -0.024040377
0.017203989 0.024194479 -0.005595173 0.016325828

static_variable_selection.single_variable_grns.체중(kg)_center.fc2.weight f4 [12, 12]
00000000: e977 123e 7de9 813e 7b8f 7b3e aa29 d2be
00000010: 9045 c3bd e24f b7be 7bd6 f03d 113c c5be
00000020: cffd e8bd 7d7a d13e e7d3 173d badc 80bd
00000030: 5e6d d63d c040 f2be 640d 303e 922f 9fbf
00000040: d8b8 1c3e 4efc 80be 7b3a e4bd c36a 0cbf
00000050: d818 01be ca26 38bd 3ab1 5f3e 7ac8 a43d
00000060: b776 a83d 7cda f1bd 6b84 88be 30b4 bf3e
00000070: ddb4 ee3e 20f2 00bd 6059 1b3e 97d8 8a3e
00000080: b634 ec3e f14c 81bf 5803 193e 42b9 173f
00000090: 3610 a23c c461 0b3d bc43 dd3d 785b 603f
000000a0: 74b1 5ebd 4e01 613d a034 b3be e76e bbbe
000000b0: 8495 bcbe 4a5d d4be a1b4 c93c 48e5 443e
000000c0: 9856 4e3d 2b64 983e eb2c 0fbd 98db 12be
000000d0: b99b 533e 8b60 df3d 8f85 e5be 9b9c b23e
000000e0: d760 343e 705c 0bbf fc3f 1f3e 4ed6 313e
000000f0: fb58 62be 04a8 63bd af9a 253e ea5d d83e
00000100: 0e5d 99be d741 b7bd 236b 133f f072 27bf
00000110: 7075 8d3e 8564 a53d 15a5 ed3d 39ae 82be
00000120: 7f04 553c 9a55 093f 875f ed3e 4434 68be
00000130: 8d0f 3f3e 2522 573d 877c 953d 63b2 8c3e
00000140: c3ac fe3e 2d42 28bf 5456 df3e 9306 e3be
00000150: f0cb 91be f3e9 f23e a16d 113e 56f4 903d
00000160: 1c69 533f 9a30 813d 5e2a 013e 2f33 9d3e
00000170: 7104 183f 982b e4bb 75bc d7bd e29d 8dbe
00000180: 4ea6 35be c426 a33e 833f c33d b001 27be
00000190: 916e a8be 26ac cabe c8ae c6be 546a d43d
000001a0: ade9 f2be 3082 3dbe 06e2 113f 5bda 3bbe
000001b0: b53c 073e c48b 433d 27e3 92bd 8048 06bd
000001c0: baec 67be 57e8 4c3c f707 a3be 2a7c e0be
000001d0: 4765 e13e 142a c4be 68c9 d9be a487 243e
000001e0: f9ab f63e 4ae5 843e 4da4 33be 2c73 05bf
000001f0: 1b7b cbbe 905d 9f3e 5428 c9bd cf09 a4be
00000200: 685a 1e3f 8012 dcbe ea96 0f3f 8cff e03c
00000210: 097f 3c3e 94c2 ee3e 8650 c2be 69c0 503f
00000220: c252 4abe c003 acbe 45bb 59be fc3d f33e
00000230: e0b0 b8bd 22da 82be e6dd 6a3d 73af 1e3f
0.14303555 0.2537345 0.24566452 -0.41047412 -0.09534752 -0.35803133 0.11759659 -0.3852239
-0.11376535 0.40913764 0.03706732 -0.062921 0.10470079 -0.47315025 0.17192608 -1.2436392
0.15304887 -0.25192493 -0.11143967 -0.54850405 -0.12607133 -0.044958867 0.2184495 0.0804605
0.08225768 -0.11809251 -0.26663527 0.3744216 0.46622363 -0.03148091 0.15170813 0.2711837
0.46133965 -1.0101606 0.14942682 0.59267056 0.01978312 0.034028783 0.10803935 0.8763957
-0.05436845 0.054932885 -0.35001087 -0.3660805 -0.3683282 -0.41477424 0.024622263 0.19228089
0.05037555 0.29763922 -0.034954946 -0.14341581 0.20664872 0.10907086 -0.4482846 0.34885105
0.17615066 -0.54437923 0.15551752 0.17366907 -0.22104256 -0.055580154 0.16172288 0.4225915
-0.29953808 -0.08948105 0.5758535 -0.65409756 0.2762866 0.08075813 0.116037525 -0.25523546
0.01300156 0.5364624 0.46361944 -0.22676188 0.18658276 0.052522797 0.07299142 0.27479848
0.49741182 -0.65725976 0.4362055 -0.44340953 -0.28475904 0.47444114 0.14201976 0.070778534
0.8258226 0.06308098 0.12613818 0.30703112 0.5938178 -0.0069632046 -0.10533992 -0.27659518
-0.17739221 0.31865513 0.09533598 -0.16309237 -0.32896855 -0.39584464 -0.38805223 0.10371843
-0.47443905 -0.18506694 0.5698551 -0.18345015 0.13206752 0.047740713 -0.07172232 -0.032783985
-0.22648898 0.012506566 -0.31842014 -0.4384473 0.4402258 -0.38313353 -0.42536473 0.16067368
0.4817808 0.25956184 -0.17543145 -0.52128863 -0.3974236 0.3112607 -0.09822145 -0.32038733
0.618567 -0.42982864 0.5608965 0.027465604 0.18407835 0.46632826 -0.3795206 0.81543595
-0.19758132 -0.3359661 -0.21262844 0.47508228 -0.09018111 -0.25557047 0.057340525 0.61986464

static_variable_selection.single_variable_grns.체중(kg)_center.fc2.bias f4 [12]
00000000: 86e6 bd3c 5b70 a53b 836d 7a3c 720f 77bc
00000010: e20b c2bc c016 f53b 12ac 61bc 46ed 4e3b
00000020: e41b 50bc 2b52 9c3b fa0d e53a 5304 b7bb
0.023181211 0.005048794 0.015284899 -0.015079366 -0.023687307 0.0074795187 -0.013773935 0.0031574531
-0.012701962 0.0047705374 0.0017475479 -0.0055852323

static_variable_selection.single_variable_grns.체중(kg)_center.gate_norm.glu.fc.weight f4 [24, 12]
00000000: b811 bc3e ab65 8dbe a48c 8cbb 4e18 94be
00000010: d2d1 cf3d 4cbc b83e 1516 b83e a828 853d
00000020: e5ee 65be c449 d63e 64cf 633c 39b3 843e
00000030: 99af 65be 4cbc 40be 7362 adbe f959 c63e
00000040: 1541 ac3d bf9e 9fbe 108e 213d e35c 42be
00000050: 9213 fd3c 1384 063e e21b 42be fc33 b53d
00000060: fe08 7dbe 423f 223d d71c d1be 6f0b f93c
00000070: 1de1 d03e ddef cc3e dddd 343e 1066 a73e
00000080: 9a1f c93e 3ae5 b13d c0c8 0a3e 0443 863d
00000090: 28af bc3e fbd0 a13e cdfa 47be b699 39bd
000000a0: c3c4 61be 9af9 3b3e 7d97 c3be 6773 403e
000000b0: 2bc3 0abe b2b9 073e 966e d83d c5da 5abe
000000c0: 23b8 543e 24a1 4f3e eaf6 acbe db06 da3e
000000d0: 55e0 b53e cbca 693e 9c3f 6bbd b010 e63d
000000e0: 842d 59be bd2e fabd abe5 4f3e 72bc 383e
000000f0: 650f 233e cf98 b5be 9be5 ae3e 2287 13be
00000100: 0e3e b83e b663 9b3e 29d7 0c3e f535 ba3e
00000110: fe16 813e d24a 823e d442 fabd b3eb c13e
00000120: 32f1 eb3d 766c 7f3e 914e d5bd f96a 973e
00000130: d158 bb3e 0a0c a7be 8cb2 ab3e 3cee 93be
00000140: b540 86be a08e b1be daa0 023e 2cd7 99be
00000150: 3a53 25be 2187 73be 4da2 e13d 4e68 d3be
00000160: 1ac7 3bbe fcff a13c 377f 433d bb8b 1fbe
00000170: 683a 0a3e a722 90be be37 b5be 6c8b 47bd
00000180: 71e1 5abe 5b71 723e 5bf1 92be e8af 56bd
00000190: 595a 243e 5d65 aabe 1230 a73e ae63 21be
000001a0: b3e0 ecbd cefa 84be e315 29be bde8 26be
000001b0: 7249 bbbe 441a 063e dc1e 5cbb dcac cb3e
000001c0: 2b66 8d3e 57e4 b83e b1da fe3d c803 5f3e
000001d0: be7d c33e a7ba a93e b15e a1be fccb b8bd
000001e0: 7795 c7be 189a b33c 45c9 10be 84c5 b53e
000001f0: 0b33 5c3d adf1 2b3c e0fd 99be 0877 a5be
00000200: 7ed7 7c3d 3f43 48be 425a 44be e078 8c3e
00000210: 79a3 61be 4b0d 0fbe 7c0a a43e f1cb 443e
00000220: 46d5 5dbe 981c a13d 0ea5 3d3e 4169 d3be
00000230: 6d54 cc3d c7d2 e73d 2d40 163c 19f2 cc3e
00000240: dd9d 8abe 51c9 653e 43ab 5cbe f5ac b0be
00000250: a724 8f3e cee1 4bbe 3f58 8a3c e9b8 563e
00000260: 9fcc aebe 75bd b1be ff17 103e 4a3f b73e
00000270: 91a3 2abd 8061 963e b15c 193e e2e7 f13d
00000280: 8e9e 87be 5c78 c93e fcee 343e d10e 8d3d
00000290: c746 8f3e 2c34 aebe 1345 a93d b0c5 4cbe
000002a0: 2f87 3fbd 0d3f 193e 9a06 3c3e 4a5b e03d
000002b0: 3336 a0be bfca 8abe 00a8 1fbb 1842 bfbd
000002c0: 5a82 a9be ab34 d33e 0af0 643d c644 94be
000002d0: d3b1 3c3e ab6c 263e 4e1f 4fbe a88f 433e
000002e0: 7196 85be 858d 253e d221 c93e 66a1 973e
000002f0: 1c7c 3f3e bea4 b7bd cf62 893d 00d6 093e
00000300: 64fe cc3d d921 b1bd 76c6 763d aaf4 2dbe
00000310: 8871 6dbe 4613 bebe c0d6 aabe a8c7 79be
00000320: a7ea c23e 9afb a83d 2cf2 bebe e2be 56be
00000330: eb41 c83d 6d63 fbbd 8cca fbbd 7ebf 1ebe
00000340: 6e9d cdbd 2329 4a3d 84f2 f93c ae14 833e
00000350: 2a7d 8a3e 1a71 a93e 7253 23bc d813 3cbe
00000360: 5209 b9ba 063d 87be 6e97 333e 07bf 2cbd
00000370: 6768 03be 5a31 b4be ddff 413e b45e 683e
00000380: 2ee3 b93e 9b7b 0bbe c584 fb3d 78a4 8d3c
00000390: ea03 85be fdd1 87be a291 5e3e 787c 78be
000003a0: 7b19 973e 5ef5 1c3e 23cc 0d3e aee2 953e
000003b0: 74c7 383e 0d08 343e 4296 513e cb37 31be
000003c0: 9c85 5fbe d71e 94bd 073b 6a3e 3bdb 933e
000003d0: 0227 9b3e 210b 09be 124d 51bd a8dd 93be
000003e0: 00df 813e 76eb 89be 5a5c 29be 8a53 ad3e
000003f0: afdd c83d e06f 2fbe bba7 8cbe c402 8fbe
0.36732268 -0.2761663 -0.0042892266 -0.28924793 0.10147442 0.3608116 0.35954347 0.06501895
-0.22454412 0.41853154 0.013904426 0.25917986 -0.22430266 -0.1882183 -0.33864173 0.3874052
0.08410851 -0.311758 0.039442122 -0.18980746 0.03089312 0.1313632 -0.18955949 0.08847806
-0.24710461 0.03961111 -0.40842316 0.03040096 0.40796748 0.4002675 0.17662759 0.32695055
0.39281923 0.086862996 0.13553143 0.06555751 0.36852384 0.31604752 -0.19529267 -0.045312606
-0.22047715 0.18356934 -0.38201514 0.18794023 -0.13551013 0.13254431 0.105679676 -0.21372516
0.20773368 0.20276314 -0.3378213 0.42583355 0.35522714 0.22831266 -0.05743371 0.11233652
-0.21208769 -0.12215946 0.20302455 0.18040636 0.15923841 -0.35468146 0.3415955 -0.14407018
0.35984844 0.3034951 0.13753952 0.3636929 0.25212854 0.25447708 -0.12219778 0.37875137
0.11520614 0.24943718 -0.10415376 0.295738 0.365912 -0.32626373 0.33534658 -0.28892696
-0.26221243 -0.34679127 0.12756673 -0.30046976 -0.1614503 -0.23782016 0.110172845 -0.41290516
-0.1833767 0.019775383 0.047728743 -0.15580647 0.13498843 -0.28151438 -0.3539409 -0.048716947
-0.21375062 0.23676054 -0.28699765 -0.05241385 0.1605009 -0.3328046 0.32653862 -0.15760681
-0.115662955 -0.259726 -0.16512255 -0.1629972 -0.36579472 0.13095957 -0.003358773 0.3978032
0.2761701 0.3611171 0.12444056 0.21778786 0.3818187 0.33150217 -0.31517556 -0.09023282
-0.3898122 0.021924064 -0.14139278 0.35502255 0.053759616 0.010494632 -0.30076504 -0.32317376
0.061728947 -0.19556902 -0.19175056 0.2743597 -0.22035016 -0.13969915 0.3203925 0.19218422
-0.21663389 0.07866782 0.18519995 -0.4129124 0.099770404 0.113194995 0.009170574 0.40028456
-0.27073565 0.22440077 -0.21549706 -0.34506956 0.2795765 -0.19910356 0.016887782 0.20968975
-0.34140489 -0.34714857 0.14071654 0.35790473 -0.041659895 0.29371262 0.14976765 0.11811806
-0.26488155 0.3934964 0.1766929 0.06887592 0.27983686 -0.3402418 0.08265128 -0.19997287
-0.04675978 0.14965458 0.18361893 0.10954912 -0.3129135 -0.27107808 -0.002436161 -0.09338778
-0.33107263 0.4125112 0.05589298 -0.2895872 0.1842721 0.16252391 -0.20226786 0.1909777
-0.2609134 0.16167267 0.39283615 0.29615325 0.18699688 -0.08966969 0.06708299 0.13460541
0.10009459 -0.08649034 0.06024786 -0.16987863 -0.2318784 -0.3712408 -0.33366966 -0.24392569
0.3806965 0.08251114 -0.37294137 -0.20971254 0.09778198 -0.12274823 -0.12294492 -0.15502736
-0.10039793 0.049355637 0.030511148 0.25601715 0.27048618 0.33094102 -0.009968625 -0.18366945
-0.0014117158 -0.26413745 0.17538235 -0.042174365 -0.12832795 -0.35193902 0.1894526 0.22692376
0.36306137 -0.1362137 0.12281183 0.017290339 -0.2597955 -0.26527396 0.21735242 -0.24266231
0.29511628 0.15327975 0.13847403 0.29274505 0.18044835 0.17581196 0.20467475 -0.1730644
-0.21828312 -0.07232445 0.2287408 0.28878197 0.30303198 -0.13383152 -0.05109889 -0.28880048
0.25365448 -0.26937455 -0.16539136 0.33852798 0.09807908 -0.1713252 -0.27471718 -0.27931798

static_variable_selection.single_variable_grns.체중(kg)_center.gate_norm.glu.fc.bias f4 [24]
00000000: 0add cf3c f358 30bc 600c 41bc 83c6 6b3c
00000010: a24b 0a3b 411e 0fbc 1c7f 4dbc 9229 9a3b
00000020: fde7 d5b9 e13b 0abb bd01 9d3b e4e6 18bc
00000030: 0cdb 5f3a 87da 3f3c a942 fbba 7383 ff3b
00000040: abe0 fd3b e0b2 2bbc 542a 093c ea44 663c
00000050: 3e6a 13bb 0482 2d3a faaa cab9 6bca d33c
0.025373954 -0.010763395 -0.011782736 0.014390591 0.002110221 -0.00873524 -0.012542512 0.0047046626
-0.0004079937 -0.002109282 0.004791467 -0.009332392 0.00085394154 0.011709816 -0.0019169647 0.0077976524
0.00774773 -0.010479659 0.008371908 0.014054516 -0.0022493745 0.00066188 -0.0003865583 0.025853356

static_variable_selection.single_variable_grns.체중(kg)_center.gate_norm.add_norm.norm.weight f4 [12]
00000000: 7112 7a3f 525b 803f fea6 7f3f a052 753f
00000010: 8027 7f3f ed61 843f b060 7d3f 4cd7 803f
00000020: c6db 833f 7c78 813f 083f 7f3f 5a74 763f
0.9768439 1.0027869 0.99864185 0.958292 0.9966965 1.0342385 0.9897566 1.0065703
1.0301445 1.0114894 0.99705553 0.9627129

static_variable_selection.single_variable_grns.체중(kg)_center.gate_norm.add_norm.norm.bias f4 [12]
00000000: ac62 a23c 275b 92ba 0007 9b3b dc21 b23c
00000010: 0b10 41bb bf44 64bc f26c b63a d78f 903c
00000020: 9921 2f3c b31e 0dbc d223 10bc 8378 dfbc
0.019822441 -0.0011166082 0.004731059 0.021744661 -0.0029459025 -0.013932406 0.0013917966 0.017646713
0.010689163 -0.008613276 -0.008797603 -0.027279144

static_variable_selection.single_variable_grns.체중(kg)_scale.fc1.weight f4 [12, 12]
00000000: e028 d53d 702e 19bf 4cd9 6c3c 40c0 603e
00000010: cb81 0d3e 92d8 b7be ee53 7a3e cdf3 33bd
00000020: 4259 3bbf e12b 9e3d 9765 35bf ce7b 393f
00000030: a740 24bf 9edb 093e 818e b33e 57a7 203f
00000040: b5e9 a7bd 5da1 a73e 30f1 e93d 3627 de3c
00000050: 3b86 f9be 4736 103d c47c 7dbd 2e5b 8dbe
00000060: 4f53 1bbe bf26 dabe efa6 693e 13b9 c4be
00000070: 81e1 3139 f8cb 953e 5eb9 f03e 0177 92be
00000080: 8e54 cdbd ec46 ca3d 9720 853e 64d6 263f
00000090: 223f 063f 742c 703d f62c a33e eae0 92be
000000a0: 5421 083f e64f f23e 6b88 323e 9d6a d5bc
000000b0: 5ed3 183e ffba 48bc 63cf 8a3e 8bdc 843e
000000c0: 6b6b 65be d3b9 02bc bc9b 89be ac15 ca3d
000000d0: c78e fbbd 832a dcbd 9313 b63e a8bd c43c
000000e0: 0060 62be c58e 96be 466e 183f ae54 303f
000000f0: 9d99 50be 572e 8a3e cc5f 0f3f 58d5 d63e
00000100: 0c60 81be d949 9d3f 927c 883c bf63 fcbe
00000110: f20d fe3e 39cd b53c f33d 6bbe e320 aa3e
00000120: 1b91 5d3e 4563 4bbf c508 153f 708f c6be
00000130: 8f2a 8a3e b6c4 8bbe 8f0d 3ebf 8997 483e
00000140: 7fad 5c3d de77 64be 5192 43be d0d1 a03e
00000150: c258 1f3f 3288 143e 1abe 01be a694 d43b
00000160: c9fb 343f 2d91 f6be 3c35 5dbe 021f 623f
00000170: 44a0 3ebe 1da3 19bf e30f b03e abec 93be
00000180: 7525 2a3e 61d6 0ebf ad3c 57bf 0593 cfbd
00000190: 2033 9ebe e1ff b2be 970a 0bbf 4bdc 0fbe
000001a0: dc5b a43e 60da 493e 2731 c43e afce e1bd
000001b0: 8e51 c9bd edd3 a0be b02f 04be aff1 bcbd
000001c0: a7f2 92bd 4f9b 08bf 4ae1 11be 4886 98be
000001d0: ec5b 7e3e 26e1 1d3f 1203 853e 77d1 343f
000001e0: f1c0 f2be 0634 88be 0274 4b3f 8799 c2bc
000001f0: a437 583e 692e 343e 7769 e6bc e548 603e
00000200: a91e 0a3e f089 e4bd bd27 01bf b7c9 d83e
00000210: 6308 8f3e 77fc 19be 1af1 a83d 3346 2d3f
00000220: 5b5b b2bd 050c a1be d15f bf3c 7c31 c6be
00000230: 38c5 3f3e 0b4d ddbe 1532 de3e 308e 19bf
0.10408187 -0.59836483 0.0144561045 0.21948338 0.13819043 -0.35907418 0.24446079 -0.04393368
-0.7318307 0.07723213 -0.7085814 0.72454536 -0.6416115 0.13462684 0.3506966 0.6275534
-0.08198873 0.32740298 0.11422956 0.027118307 -0.48735222 0.035208013 -0.061886564 -0.27608627
-0.15168498 -0.42607686 0.22817586 -0.3842245 0.00016964042 0.29257178 0.47016424 -0.28606418
-0.10025893 0.098768085 0.26001427 0.65170884 0.52440083 0.058636144 0.3187024 -0.2868722
0.53175855 0.47326583 0.17434852 -0.026051814 0.1492438 -0.012251615 0.27111349 0.2594951
-0.22404258 -0.007978874 -0.26876628 0.09867415 -0.12283092 -0.10750296 0.3556181 0.024016216
-0.22106934 -0.294058 0.59543264 0.6887921 -0.20371099 0.2698848 0.5600555 0.41959643
-0.2526859 1.2288162 0.016660962 -0.4929485 0.49620014 0.022192584 -0.2297285 0.33228216
0.21637385 -0.7944835 0.58216506 -0.3878131 0.26985595 -0.27298516 -0.7423944 0.19589056
0.053876396 -0.2231135 -0.19098784 0.31410074 0.6224481 0.1450508 -0.12670174 0.006487447
0.70696694 -0.48157635 -0.21602339 0.88328564 -0.18615824 -0.60014516 0.3438712 -0.288915
0.16615851 -0.55795866 -0.8407696 -0.101354636 -0.3089838 -0.34960845 -0.54313034 -0.14048879
0.32101333 0.1971221 0.3831875 -0.1102575 -0.098300084 -0.31411687 -0.12908816 -0.09225785
-0.071751885 -0.5336198 -0.14246097 -0.29789948 0.24839753 0.61671674 0.25978905 0.7063212
-0.47412828 -0.2660219 0.7947389 -0.023754848 0.21114975 0.17595829 -0.028126461 0.21902807
0.13488258 -0.11159122 -0.5045126 0.42341396 0.27936086 -0.15037714 0.082491115 0.6768524
-0.08708831 -0.31454483 0.023361119 -0.3870963 0.18727577 -0.43222842 0.43397585 -0.59982586

static_variable_selection.single_variable_grns.체중(kg)_scale.fc1.bias f4 [12]
00000000: 286b e03c 691f 003d 665a c6bc eef1 18bb
00000010: 9e52 adbb 7e2b 97bc 10f2 073d 9f53 123c
00000020: e5da dcbc cdb0 1c3b 2aff b13c badd f738
0.027394846 0.031279955 -0.024213027 -0.002333756 -0.0052893898 -0.018453356 0.033189833 0.00893107
-0.026959846 0.0023909092 0.021728117 0.000118191776

static_variable_selection.single_variable_grns.체중(kg)_scale.fc2.weight f4 [12, 12]
00000000: 452b 103d 18f2 8b3d ff96 8abd 9a16 1bbf
00000010: e62b df3e 2402 5c3f c1c8 26be ab5d edbe
00000020: 93ff 1a3e 748b 193f 6473 48be 28ca c73e
00000030: d3f7 9b3e e738 d93e 6b75 133e 7c2d 13bf
00000040: 2ad4 493f b4ac f43e 1aad d3be 0748 32be
00000050: 7064 bbbd e05d 80bf 7559 9cbe f3c3 a6be
00000060: 9007 063f ec71 263f 1bd6 84be 65e3 5b3e
00000070: 365a bfbc 4852 f03c 54b1 8ebd 9af8 873e
00000080: 3ffa c73d 5d80 1e3f f350 19bf f1eb 173f
00000090: 195b 34be 3187 9e3d 2994 38be 9a5d 8a3e
000000a0: af9a f0be 1895 ebbd 2a8e 17bf d7e0 3a3f
000000b0: 70b8 a23d 281a 18be a18e c8be 567d b83e
000000c0: d98d 1a3c 06ec 143c 5fb8 37be 8225 46bf
000000d0: aeab f53c 2518 903d d71f f33d 6d97 4c3f
000000e0: eae3 0abf 16f4 80bd a39e 6dbe 7b81 4dbe
000000f0: d5b9 aa3e f5ba 3e3f 62be 063e 70b1 04bf
00000100: 6685 babe b34d d63e 3de5 423d f046 ec3e
00000110: 4c62 a0be c6f3 e43a f0f9 de3e ceec 333d
00000120: 3eda 083e daf7 863e 284d abbd cb96 ad3e
00000130: 79a0 33be 5170 53be 9781 a33e 4b2c f9bd
00000140: 4f8a 513f ec05 2cbd e9e9 c7be 099b 8abe
00000150: 7194 dc3e f77c e73e 3636 253e e2b1 243e
00000160: d761 b13e 7346 813e 37af 953e b0d1 093f
00000170: 3ec6 4cbf 4d22 343f 4498 ab3d f982 003e
00000180: b032 283e 3619 473f c8ed febe a1bc 7c3d
00000190: cd1f f73d be06 3e3e 2c8d b53e 7b3d 06bf
000001a0: 0bed 80be 7590 71bf 84db d8bd 4cab d03e
000001b0: 100b c23e 2ee9 82bc ccab dd3d 1831 f4be
000001c0: 2506 a4be 5d86 33bd f364 f2be d52d 4a3e
000001d0: 1251 153e 99df 063f f4ee 50be b6bd 0f3e
000001e0: c6f5 b5be 9249 88bf 395d 0a3f 2a9d b63e
000001f0: f3fd a83d 3d12 df3d d36a e1bd 3c25 e43e
00000200: 4cff a73d a431 583e ca7e bc3d 1462 773e
00000210: ae88 1d3f 49b6 e53e 5097 203e fcad 693e
00000220: a895 033f 1c64 483e 73ea 51be 2a9e 43bf
00000230: aedb d6be b0fd 243f 57e4 913f ddb2 cfbc
0.035197515 0.06833285 -0.067670815 -0.6058136 0.4358818 0.85940766 -0.16287519 -0.46360525
0.15136556 0.59978414 -0.19575268 0.3902142 0.30462512 0.42426226 0.1440026 -0.5749128
0.7883936 0.47788012 -0.41343004 -0.17410289 -0.09150016 -1.0028648 -0.30537 -0.32571372
0.5235529 0.6501758 -0.259446 0.21473463 -0.023358446 0.02933611 -0.069674164 0.26556855
0.097645275 0.61914617 -0.59889144 0.59344393 -0.17612876 0.077406295 -0.18025269 0.27024537
-0.46993014 -0.11503047 -0.592013 0.7299933 0.07945335 -0.14853728 -0.39171317 0.36033124
0.009433233 0.0090894755 -0.17941426 -0.7740098 0.02998909 0.07035855 0.11871307 0.7991856
-0.5425402 -0.06296556 -0.23205046 -0.20068924 0.33344904 0.74504024 0.13158563 -0.5183325
-0.364299 0.41856155 0.0475819 0.4614787 -0.31324995 0.001746767 0.43550062 0.043927006
0.13364503 0.2636097 -0.08364326 0.33904108 -0.17541684 -0.20648314 0.31934807 -0.12166651
0.8185167 -0.041997835 -0.39045647 -0.27071407 0.43082002 0.45212528 0.16133961 0.16083482
0.34644958 0.2524906 0.2923524 0.5383558 -0.79989994 0.7036484 0.08378652 0.12549962
0.16425586 0.77772844 -0.49790788 0.061703328 0.120666124 0.1855726 0.35459268 -0.5243756
-0.2518085 -0.9436105 -0.10588744 0.4075569 0.37899065 -0.01598033 0.10823783 -0.47693706
-0.32035938 -0.04382931 -0.47342643 0.19744046 0.14581707 0.5268493 -0.20403653 0.14037213
-0.35539073 -1.0647452 0.54048496 0.35666782 0.08251562 0.108921506 -0.11006703 0.44559658
0.08202991 0.21112686 0.092038706 0.24158508 0.6153668 0.44865635 0.15682721 0.22820276
0.5140023 0.19569439 -0.20499592 -0.76413214 -0.41964477 0.64449596 1.1397809 -0.025353843

static_variable_selection.single_variable_grns.체중(kg)_scale.fc2.bias f4 [12]
00000000: eb9d 9fbc b58f 65bc 3e58 3aba 6f29 c4bb
00000010: 5257 4e3d c1b5 38bc 1a5c 8c3c 217c 793c
00000020: c9f4 8b3c 99f3 8a3b 477c a5bc 634c f03c
-0.01948448 -0.014011313 -0.0007108486 -0.0059863846 0.050376244 -0.011273802 0.017133761 0.015227349
0.017084496 0.004240465 -0.020200862 0.029333299
