time_series/lightning_logs/hidden_tuning/lightning_logs/version_3/checkpoints/epoch=103-step=2080.ckpt (torch, 849272 bytes, 1066 tensors)

prescalers.encoder_length.weight f4 [16, 1]
00000000: ccb8 433f 667b 543f 20e5 6fbe 1c2a 6b3f
00000010: b05c 60be 38a2 4e3e 1045 f9be 2858 163f
00000020: ccac 613f 0ecf 3bbf a483 5e3f b0a6 3f3e
00000030: 9422 3d3f 50ae 0a3e 5ce1 f63e 6094 10be
0.7645385 0.8300079 -0.23427248 0.9186113 -0.21910357 0.20179069 -0.48685503 0.58728266
0.8815429 -0.73362815 0.8691962 0.1871593 0.7388089 0.13543057 0.4821881 -0.141191

prescalers.encoder_length.bias f4 [16]
00000000: 5d77 493f f7b5 2f3e 444e f3be 560a 5d3e
00000010: 9a49 f0be 1d1c 01be f722 c1be e05e 373f
00000020: 6b29 4bbf a5de e0be 110f 8ebe f52c 19bf
00000030: c24f b33d 5485 80bf 5ae8 6a3f 22eb 55bf
0.7869776 0.17159258 -0.4752065 0.21585974 -0.46931154 -0.1260838 -0.3772199 0.7162914
-0.79360074 -0.43919864 -0.2774587 -0.59834224 0.08755447 -1.0040689 0.9176079 -0.8356191

prescalers.체중(kg)_center.weight f4 [16, 1]
00000000: 96a3 453f c869 2a3e ac3f a6be f831 1e3f
00000010: 5897 1f3e b0d6 4e3f 00e3 df3d 9878 a1be
00000020: e890 893e 08d8 8abe a47a d73e fe8f 643f
00000030: b6fb 133f 14d5 dfbe 9ec7 133f 7038 373e
0.7720274 0.16641915 -0.32470453 0.61794996 0.15585077 0.8079634 0.10931969 -0.31537318
0.26868367 -0.27117944 0.42085755 0.89282215 0.57805955 -0.43717253 0.57726467 0.17892623

prescalers.체중(kg)_center.bias f4 [16]
00000000: ffce 083f c569 25bf 855b 80bf 6a9d d0be
00000010: 4fe7 49bf 7a91 513f 36f6 963e 85d5 cc3e
00000020: 7f48 943e 874c b4bc 3ee5 4a3f ae3f 32bf
00000030: 4bf7 5b3d ac70 2bbf 11b3 a23e 5ecc afbe
0.5344085 -0.64614516 -1.002793 -0.40745097 -0.78868574 0.81862605 0.2948472 0.40006652
0.2896156 -0.022009147 0.79256046 -0.6962842 0.053702634 -0.669688 0.31777242 -0.34335607

prescalers.체중(kg)_scale.weight f4 [16, 1]
00000000: 98e2 9c3e 7857 55be 0653 543f 50bb 17bf
00000010: 8aad 18bf e6af 18bf e241 663f e49f aa3e
00000020: 1056 763f 4e45 53bf 98eb 7dbf fe48 48bf
00000030: 5a35 2cbf 6c61 cf3e b855 b73e 76b7 543f
0.30641627 -0.20834148 0.82939184 -0.5927019 -0.596398 -0.596434 0.8994428 0.33325112
0.9622507 -0.82527626 -0.9918761 -0.7823638 -0.6726891 0.40504014 0.35807586 0.8309244

prescalers.체중(kg)_scale.bias f4 [16]
00000000: 3d0f 07bf ae8c 25bf 7909 043f a0eb bebe
00000010: 0b56 193f 6ea8 69be cd34 193f b200 44bf
00000020: 109c 01bf b84c 963e ac3c 613e 3562 89be
00000030: 36b8 143f 74ad 343f 21ac 32bf 7d09 09bf
-0.52757627 -0.64667785 0.51576954 -0.37289143 0.59896916 -0.22818157 0.5984619 -0.7656356
-0.5062876 0.29355407 0.219958 -0.2683274 0.58093584 0.7057717 -0.697939 -0.535301

prescalers.WOD.weight f4 [16, 1]
00000000: d268 6a3f f4c3 acbe 2c83 b5be 48b4 77bf
00000010: 849a 12bf 88cc 7f3e 3829 07be aad3 39bf
00000020: 4028 c03c 6ede 2ebf 8630 59bf 3af8 0cbf
00000030: e60d 60bf 4401 23bf 5ee6 7f3f 7068 413e
0.91566193 -0.3374325 -0.3545164 -0.9675946 -0.5726702 0.24980366 -0.13199317 -0.725886
0.023456693 -0.6830815 -0.84839666 -0.55066264 -0.8752121 -0.63673806 0.9996089 0.18887496

prescalers.WOD.bias f4 [16]
00000000: b4cd 923e 7621 6dbf 521e 21bf b16a 97be
00000010: 0d89 3a3e 9674 6abf 88f5 eebe 6cf0 17bf
00000020: fcf4 803b ed51 c9be 94b7 09bd d5e3 37bf
00000030: 1545 27bf dca6 12bf 4eb2 a3be a99f 53bf
0.28672564 -0.9262918 -0.6293689 -0.29573587 0.18216343 -0.91584146 -0.466717 -0.5935123
0.0039354544 -0.39320317 -0.03362234 -0.7183202 -0.65339786 -0.5728586 -0.31971973 -0.826655

prescalers.relative_time_idx.weight f4 [16, 1]
00000000: f6a5 563f 283a 4bbe f642 5c3f b087 9f3e
00000010: b0c7 58bf 3829 313f c8df 8cbe 5043 c4be
00000020: 807f 54bf 5081 7ebf 187d 923e c0af 5fbe
00000030: 5c55 c73e 0017 52bf d60f 3e3f f2ea 3bbf
0.83846986 -0.19846404 0.86039674 0.3115821 -0.846797 0.6920352 -0.27514482 -0.38332605
-0.8300705 -0.99416065 0.28611064 -0.21844387 0.38932312 -0.82066345 0.74242914 -0.73405373

prescalers.relative_time_idx.bias f4 [16]
00000000: b4c8 54be f75d 7f3e 999e 0b3f 7b2f 453f
00000010: a891 693f 8d7d 44bf 68fa 613e 7ad6 cbbe
00000020: 0249 95bd d02c 45bf 4363 653f c236 33bf
00000030: 99e2 0f3f e81e a33e ba6a a73e b71f 12bf
-0.20779687 0.24938188 0.54538876 0.77025574 0.9123788 -0.76754075 0.22068179 -0.3981207
-0.07289316 -0.77021503 0.89604586 -0.7000543 0.56205136 0.31859517 0.32698613 -0.57079643

prescalers.relative_time_idx.bias f4 [16, 1]
00000000: 0cb1 683f 4006 613e 38ba 033e ea99 61bf
00000010: 84ee d63e 009f 19be 448f eabe ece3 5b3f
00000020: b04c 643e 86a3 0dbf 5292 01bf 809b 43bd
00000030: c4f0 0e3f 54d5 82be 3211 12bf ac54 afbe
0.9089515 0.2197504 0.12864006 -0.8812548 0.41978848 -0.1500206 -0.45812428 0.85894656
0.22294879 -0.5532764 -0.5061389 -0.04775572 0.5583613 -0.2555338 -0.5705749 -0.34244287

prescalers.relative_time_idx.bias f4 [16]
00000000: bc96 3abf bdac bb3e 301d 423f cf24 70bf
00000010: 5ca7 623e 22bd 043f 1a6f 2e3e b87c b9be
00000020: 7515 073f e395 033f fcb8 b43e 3fd2 45be
00000030: fd1d 81be d1eb ec3d 7715 2dbe a954 96be
-0.7288625 0.36655226 0.75825787 -0.93806165 0.22134155 0.51851094 0.1703457 -0.36227965
0.52767116 0.51400584 0.35297382 -0.19318484 -0.25218192 0.11568416 -0.1690272 -0.29361466

prescalers.착유량(L).weight f4 [16, 1]
00000000: 10a3 233f 9c01 5c3f 20bf cabd 3845 65be
00000010: 8014 6f3c a090 74bd 602e 763e c87a 8f3e
00000020: 8483 68bf 84f2 bcbe cc95 573f c073 c73e
00000030: a0b9 4bbd 0858 1abf 429f 1cbf fa50 65bf
0.6392069 0.85939956 -0.098997355 -0.22389686 0.01459229 -0.059708238 0.24041128 0.28023362
-0.90825677 -0.36903775 0.84212947 0.38955498 -0.049737573 -0.60290575 -0.6118051 -0.89576685

prescalers.착유량(L).bias f4 [16]
00000000: a215 b6be 8c1e b23e 9ded 233f 52b4 e63e
00000010: 2679 61bf d207 15bf f45c 1bbe 6726 783f
00000020: 414b eb3d 2bad 88be ec89 e33e 2af9 d2be
00000030: 9e94 25bf e1f9 363f d39a ecbe 4d0a 5dbe
-0.3556338 0.3478893 0.64034444 0.45059448 -0.8807548 -0.5821506 -0.15172178 0.969336
0.11488963 -0.26694617 0.44441164 -0.41205722 -0.64679897 0.71475035 -0.46211872 -0.2158596

prescalers.섭취량(kg).weight f4 [16, 1]
00000000: 7eab 7ebf 5255 2b3f 58f4 413f f498 ba3e
00000010: 9080 32bf 18a8 7cbf f6ea 4fbf 36e6 3e3f
00000020: 6cd0 f53e d66c 573f 561c 063f 4c95 813e
00000030: 8071 20bc 86b0 42bf 6c55 5bbf 0273 6fbf
-0.99480426 0.66927063 0.75763464 0.3644482 -0.6972742 -0.9869399 -0.81217897 0.74570024
0.48010576 0.84150445 0.5238699 0.25309217 -0.0097926855 -0.76050603 -0.8567722 -0.93534863

prescalers.섭취량(kg).bias f4 [16]
00000000: ba85 d53e 3455 fabe 8a95 46be ffe5 15bf
00000010: 1c38 50be 5ad0 36bf 8bbb 22bf 64f3 a43e
00000020: f20a a2be 2873 1c3f 9f30 a0be 01e6 44bf
00000030: 546c 2bbe 67d7 f2be 4fb5 a1be 6995 70bf
0.41703588 -0.4889313 -0.19392982 -0.5855407 -0.20333904 -0.7141167 -0.6356742 0.32216942
-0.31648976 0.61113214 -0.31287095 -0.7691346 -0.16740543 -0.47429964 -0.3158364 -0.9397798

prescalers.섭취량(kg).bias f4 [16, 1]
00000000: cc3a 0f3f 763a 32bf 8eab 003f 6856 e83e
00000010: 10e5 363f 865d 44bf 481d 383f 800c f2be
00000020: c8fc bd3e d269 703f a86a 10be 0069 fdbb
00000030: 90c1 6bbe 8cc1 55bf d4b5 f53e c222 7ebf
0.5594909 -0.69620454 0.5026177 0.45378423 0.7144327 -0.76705205 0.7191968 -0.47275162
0.3710692 0.9391147 -0.14103186 -0.0077334642 -0.23023057 -0.83498454 0.47990286 -0.99271786

prescalers.섭취량(kg).bias f4 [16]
00000000: db9d 183f bf97 413f a1c2 6e3f 0395 6abe
00000010: 8646 57bf 6e78 713e aa19 083f 9b1f 7cbf
00000020: abb3 70be 92a6 18bf e027 a3bd 0c48 f2be
00000030: e63c cfbe 7c72 97be 3b8e 72bf 052a 4f3f
0.5961587 0.7562217 0.9326573 -0.22908406 -0.84091985 0.23581097 0.5316416 -0.98485726
-0.23506038 -0.59629166 -0.0796659 -0.47320592 -0.4047615 -0.29579532 -0.94748276 0.8092349

prescalers.섭취량(kg).bias f4 [16, 1]
00000000: e09c 563f 48a2 20be 003b e9bd 18f5 d0be
00000010: 202f 67bf fe1f 79bf 044a be3e 4a8e 0cbf
00000020: 9693 24bf a0ca 9fbd 7080 aabe 84a4 a5be
00000030: 009c 033d 0034 59be b849 b0be 0c26 f5be
0.8383312 -0.15686905 -0.113882065 -0.40811992 -0.9030628 -0.9731444 0.37165844 -0.54904616
-0.642877 -0.078023195 -0.33301115 -0.32352078 0.032131195 -0.21211243 -0.34431243 -0.4788059

prescalers.섭취량(kg).bias f4 [16]
00000000: 0802 4bbf 8350 513f e0c9 c8be 9c89 923e
00000010: 255f bebe 3515 e43d f599 733f 0382 e33e
00000020: d4a6 5fbf 24c0 bd3e ccc0 733f c318 773e
00000030: 3828 2b3f bb43 763f 3424 2dbe 7ccf 653e
-0.79299974 0.81763476 -0.39216518 0.28620613 -0.37181965 0.111368574 0.95156795 0.4443513
-0.87363935 0.37060654 0.9521606 0.2413054 0.66858244 0.961971 -0.16908342 0.2244243

prescalers.age.weight f4 [16, 1]
00000000: d2ed 31bf e005 53be e696 3d3f c23c 033f
00000010: 76fe 21bf 5648 4dbf ecf0 2ebf 04a4 7cbf
00000020: 228a 45bf 883b 7dbe c0c4 2c3f 4066 2b3e
00000030: 0ab7 42bf 8c5e 4dbf 14b5 fe3e 626c 3ebf
-0.6950351 -0.2060771 0.7405838 0.51264584 -0.632789 -0.801885 -0.6833637 -0.9868777
-0.771639 -0.2472974 0.67487717 0.16738224 -0.76060545 -0.8022239 0.49747527 -0.7438413

prescalers.age.bias f4 [16]
00000000: 9065 f2bd 89dd f73e 52bf e7be fa1b 99bd
00000010: 006e a9bd 7bb7 70be d392 00bf 2178 62bf
00000020: 4d7c 51bf 34c0 0dbf dbab 7b3f 76bd 03bf
00000030: 17e7 28bf 8743 603e 9096 873e 89fb 0c3f
-0.11835778 0.48411205 -0.45263153 -0.07476039 -0.08272934 -0.23507492 -0.50224036 -0.8846455
-0.8183029 -0.55371404 0.98309106 -0.5146097 -0.65977615 0.2190076 0.26482058 0.5507131

static_variable_selection.flattened_grn.resample_norm.mask f4 [3]
00000000: 55da aa3b 2929 acbc 6328 3a3b
0.0052140155 -0.02101572 0.002840542

static_variable_selection.flattened_grn.resample_norm.norm.weight f4 [3]
00000000: fdf5 7c3f b07e 873f aceb 803f
0.9881285 1.0585537 1.0071921

static_variable_selection.flattened_grn.resample_norm.norm.bias f4 [3]
00000000: e030 dcbb c268 103c fb41 e4bb
-0.0067196935 0.008814039 -0.0069658733

static_variable_selection.flattened_grn.fc1.weight f4 [3, 48]
00000000: d010 c1bd 848b a3be 288f 9b3d ef62 29be
00000010: d484 8e3d 4411 913e 027f ac3d 3caa 3abe
00000020: 386c 14bd 4a1c 183e 3454 11be 2d8f 6d3d
00000030: 31f0 f5bd 2c47 aebe bb2b 52bc 26ed b7be
00000040: e67a 90be 54a1 9b3e 459f 72be 8e36 3a3e
00000050: 88b0 243e 52e7 653d 171a 0ebf 3d6d a1be
00000060: 8bc5 a63c 1f88 583d 01e4 66bd 2421 8a3e
00000070: 802a 96bd ec35 6c3e 4c99 f63d 6a8e 8f3e
00000080: 3b52 283d 457f b8be 3d8a 3c3d c2f7 b2be
00000090: 969d 2a3e ec71 54be e0fa b6bd 6991 8e3c
000000a0: e9c2 49be 9002 ac3e da63 abbe 9f47 133e
000000b0: 4034 993e c26e c4be 4201 f8bc b1c5 02be
000000c0: 5987 13bb 6dd7 ba3e 4706 093f 2116 7b3d
000000d0: 42d2 9d3d 4375 6b3c 0e9a 27bd 4ebd 6d3d
000000e0: cf83 203f 1394 d93d 1c61 d23d d0e5 5c3e
000000f0: 2848 51bc 8482 c03d 1178 fdbd b753 29bd
00000100: ec72 6e3e 1d17 27be 2521 83be fc8e 833d
00000110: 071a 25be a1d7 a1be 2e99 07bd 3621 d0bd
00000120: b3ca e3bc 7999 03be baca 6abe 973e 303e
00000130: 6091 5f3d 4878 d6bd e0e8 823b 1337 72be
00000140: ae7a d5be 706a 6abc 57d5 893d d30d cc3d
00000150: 7c11 9ebd 47d0 79be 920d e93d 0ac5 3a3e
00000160: d8a1 cfbd 72cf 083d 72b0 a1be f931 0cbd
00000170: 1254 263d 759b 263e 4018 633d 1ea5 d93e
00000180: 0e38 69be fd43 cebe 89b8 f93e 2e52 55be
00000190: 2e2e 183e e323 d1bd 787a e9be 0b51 7f3e
000001a0: 1e8c 3bbd fae7 1dbe 6e19 9f3e b1ef a73e
000001b0: ebb6 15bd e4e8 be3d d549 7e3d 0225 2a3e
000001c0: 3aa3 5f3c 440a 94bd 4d8b d93d de90 f7bd
000001d0: 3b71 9dbd abe8 2d3d b210 7e3c 8cce ce3d
000001e0: 361c 1c3e dd83 70be 816d 99bd 5ddf 403e
000001f0: 7130 a93e e496 2f3b d004 a13e 2609 7d3d
00000200: 1922 f7bd fb00 91be c54c 5b3d 2630 aa3e
00000210: a0ac 993c b276 14bd ff70 bfbd 6d85 53be
00000220: 490f 3e3e 2b64 f23c 716c 8ebc b236 b0be
00000230: 9222 a13e 08ef c73c 1512 e93b 20a1 efbd
-0.09427035 -0.3194238 0.07595664 -0.16541646 0.06958929 0.28333485 0.08422662 -0.18229002
-0.036236018 0.14854541 -0.14192277 0.05799787 -0.120087035 -0.34038675 -0.012827809 -0.35923117
-0.28218764 0.3039652 -0.23693569 0.18184873 0.16082966 0.056128807 -0.5550856 -0.31528655
0.020357868 0.05286419 -0.056369785 0.2697841 -0.07332325 0.23067445 0.12040958 0.2803834
0.041094046 -0.360346 0.04603027 -0.3495465 0.16661677 -0.20746583 -0.08934569 0.017403321
-0.19703259 0.33595705 -0.33474618 0.1438279 0.29922676 -0.38365752 -0.030274037 -0.12770726
-0.0022511093 0.36492482 0.53525203 0.0613004 0.07706119 0.014371219 -0.040918402 0.058041863
0.62701124 0.10623946 0.102724284 0.21572042 -0.012773551 0.09399894 -0.123764165 -0.041339602
0.23286027 -0.16317411 -0.25611225 0.064237565 -0.1612321 -0.31609824 -0.033105068 -0.101625845
-0.027806615 -0.12851514 -0.22928897 0.17211376 0.054582 -0.104721606 0.003995046 -0.23653822
-0.4169516 -0.014307603 0.067301445 0.09963574 -0.07718179 -0.24395858 0.113795415 0.18239227
-0.10138291 0.03340096 -0.3157993 -0.034227345 0.04060752 0.1627024 0.05544305 0.42508787
-0.2277529 -0.40286246 0.48773602 -0.2083213 0.14861366 -0.10211923 -0.4560125 0.24933259
-0.045787923 -0.15420523 0.3107409 0.32800058 -0.036551397 0.09321764 0.06208213 0.1661568
0.013649756 -0.072285205 0.10622273 -0.12088178 -0.076876126 0.042458218 0.01550691 0.100979894
0.15245137 -0.23487802 -0.07491589 0.18835206 0.3304477 0.0026792819 0.31448984 0.061776303
-0.120670505 -0.2832106 0.05354001 0.3323986 0.018759072 -0.03624601 -0.09347724 -0.20656367
0.18560518 0.02958878 -0.017385693 -0.3441673 0.31471688 0.024405971 0.0071127512 -0.11700654

static_variable_selection.flattened_grn.fc1.bias f4 [3]
00000000: 40e6 d2bc 1abe 183c c2b5 f0bb
-0.025744557 0.0093226675 -0.007345886

static_variable_selection.flattened_grn.fc2.weight f4 [3, 3]
00000000: 6e4c 6f3f 5c2f 6d3f 149c 403d ee7c dc3f
00000010: 95e7 f63e 75b3 703e cde8 cb3f 1839 7ebc
00000020: 3b47 9d3d
0.93476 0.9265039 0.047023848 1.7225626 0.48223558 0.23505957 1.593042 -0.015516542
0.07679602

static_variable_selection.flattened_grn.fc2.bias f4 [3]
00000000: 85d8 573b 565e 20bc 5e58 273c
0.0032935452 -0.009788116 0.0102139395

static_variable_selection.flattened_grn.gate_norm.glu.fc.weight f4 [6, 3]
00000000: 2c19 493f efc6 ef3e caa1 c8be 4697 e5be
00000010: bebb 23bf 7c80 813e 4b25 19bf 4d09 973e
00000020: ab2c 533e 8f7b 37bf d1ca 693e fab9 8bbd
00000030: 754f cc3e 90d5 e53e d54d 53bf dac8 383f
00000040: 9de4 303f 3de5 b53e
0.78554034 0.46831462 -0.39185935 -0.44841975 -0.63958347 0.25293338 -0.5982253 0.29499283
0.20622508 -0.7167291 0.22831275 -0.068225816 0.3990437 0.44889498 -0.8254064 0.72181475
0.69098836 0.35526457

static_variable_selection.flattened_grn.gate_norm.glu.fc.bias f4 [6]
00000000: 93d9 a5bb e32c f0b9 ad03 e3bc 0451 60bc
00000010: dc7a a9bc 9aa4 2dbd
-0.0050613373 -0.0004580981 -0.027711714 -0.013691191 -0.020688467 -0.042393304

static_variable_selection.flattened_grn.gate_norm.add_norm.norm.weight f4 [3]
00000000: 1acb 773f 0db5 823f f614 713f
0.96794283 1.0211502 0.9417261

static_variable_selection.flattened_grn.gate_norm.add_norm.norm.bias f4 [3]
00000000: 8bc3 bbbc f02e 403c b8b0 883c
-0.02292039 0.011729941 0.016685829

static_variable_selection.single_variable_grns.encoder_length.fc1.weight f4 [16, 16]
00000000: 3937 473f ecb2 5ebe 2db8 e2bd 3802 22bf
00000010: 0a77 b0be d3cb 683e 56c4 bc3e 7817 ab3e
00000020: d47d 053d fb40 34bd a6e2 47be a3bc 5d3f
00000030: 8385 2ebf f72a e93d 44b0 06bf 661e 28be
00000040: 59ab ac3e 2caf 8b3e ff92 f43e 7482 a4bd
00000050: 0249 fabd 2718 be3e ccce 103d 650a 4e3e
00000060: 999c fbbe 72e9 d8be acac 333e 231b 37be
00000070: 8f84 9cbe ac71 a2bd c8fb 64be 0879 8cbd
00000080: d979 92be f2b2 2dbf 94a7 0cbf e021 ab3c
00000090: f0aa b33c 7c00 763e b95e ad3e 401d 82be
000000a0: 7517 f7bd 09dd edbb b90a 0cbf af57 923d
000000b0: ed32 18be acfb dcbe 5408 043f 5801 b2bc
000000c0: 6d60 c6be c39e cb3e 24eb 61bf 04da 933e
000000d0: df61 b2be d02d 53bf ccfe 95be 358a 9f3e
000000e0: 7061 d2bd c248 ac3e fbd4 97be 6827 d43e
000000f0: 200e c2bd c72c 8dbe 8336 dcbd 43a7 0c3e
00000100: 20c1 153d 2074 bd3e 6057 9c3e 3e9f 03bb
00000110: 441d 07bf cbcf 383e 41a4 08be a16f 34bf
00000120: 5dcf 93bc 8d61 dd3e aa07 3fbf 9528 cdbd
00000130: c680 c2bb 4e57 c73b 5bf8 c53e 194e 213f
00000140: 2f70 63be 72f6 e3be cdec 24be fb56 2cbe
00000150: 46d6 83be 0034 233e 8e7f 05bf 16e2 803d
00000160: dc5f 0f3e d204 863c 9b43 fd3e bef0 d2be
00000170: f7c5 13bd 73d5 75be c6c0 203e 768e d13d
00000180: 58a8 293f 71d0 6a3e 0be5 483e 1ece 513e
00000190: 1e07 d83e ef6d 95bd 9694 f43e b945 8abe
000001a0: 44c6 6a3e 7025 c93e 2310 853e 5902 fcbd
000001b0: 4687 55be 75f8 18bd 6d82 93bd 4097 fa3e
000001c0: 0a41 243d 9229 dc3e d3e2 fd3e a9a3 7f3f
000001d0: fede c8be 6ec5 313f 69f6 c7be 83aa 15bf
000001e0: bf85 af3b 07f0 83be 5a44 5f3e c065 a6be
000001f0: 15b4 0c3d f552 8d3e c6db 02bf 8447 e13e
00000200: 2e31 c4bd 5444 0f3e 18f5 c83e aca6 d4be
00000210: a235 a63e 132a 80bd 1e87 e1be f0f4 503e
00000220: a13c b1bd 9a54 913e 3ffe 5a3e 6c1d 1e3f
00000230: 721e 823d c534 203f 485e 81bd e109 c13e
00000240: c2cf 83bb 1136 2cbe 9fe7 c4be 0374 c83d
00000250: 7741 d7be 63c4 c0be 19a1 38be 5e85 a4be
00000260: 065e ab3e cb3b a13e 9968 e03c 0e05 743e
00000270: 6ef5 d0bd 1b5f b63d 158b f7be 23ed 93be
00000280: e5a0 8abe 02c5 d13e 2c4f d33c a696 b2be
00000290: 9597 423e fb47 b23e 8eb7 98be ace5 133e
000002a0: d3f3 2c3f 5836 f6bd 5530 27be 9bc3 e4be
000002b0: c588 c4bc c5f8 c23d 1c5a 11be acf6 94be
000002c0: dc40 983e 7393 24bd 54e6 5fbd f8e1 553e
000002d0: 3a34 0dbe a85a b6be 2bf6 183e a467 aebb
000002e0: c938 1b3f 7d52 15be 4a15 09bf 5e9e ec3d
000002f0: 19bf b73e 6005 1b3b 330e 203d 8ecd 63bd
00000300: 091e 2cbe e5af f0be daed b4bd 1977 06be
00000310: 1008 0c3d 208a 223f 90dd 56be 42f5 953d
00000320: 3066 66bf 8d08 a3bd 7a30 0f3e 522c f23e
00000330: c6b3 063f 2f83 d9be 15b1 093e c257 aebd
00000340: 87e1 e9bd b9d0 e5be b277 4abe 9a37 bcbe
00000350: aded a13d 3ce0 7a3d cc16 5a3e c8ec 8ebe
00000360: 86f8 56bf 10ab fcba 8231 e83e d1d2 043e
00000370: 2d4e 2bbf b476 bb3d fc4b 003f c8bd 703e
00000380: b996 3d3e c079 ac3e 307c 1e3f b2d9 bf3e
00000390: e18a 29bf a3c2 b83d a159 693e dd9d 873e
000003a0: 0198 8b3e 03f8 d83e 1ee4 7a3e a610 003e
000003b0: 4304 2ebf 5644 92be 8f2a 1bbd b13e 0fbe
000003c0: 42f9 39be d133 9cbd e12f 6a3e c3b0 5fbd
000003d0: 168c 493d 75e9 06bf 0bfb 4c3e c7d3 7d3e
000003e0: 8de4 b4be 400f fa3e eb4c e4bd 09d0 06bf
000003f0: 1413 9fbd f545 5bbe 7ae6 e8be e3ad d8be
0.7781864 -0.21747941 -0.11070285 -0.63284636 -0.3446582 0.22734003 0.36868542 0.33416343
0.032590702 -0.044007283 -0.19520053 0.8661596 -0.6817247 0.11385148 -0.5261271 -0.16417846
0.33724478 0.27282083 0.477684 -0.080326945 -0.122209564 0.37127802 0.035353467 0.20121153
-0.49142912 -0.42365605 0.17546338 -0.17881446 -0.30569884 -0.079318374 -0.22361672 -0.068590224
-0.28608587 -0.67851174 -0.54943204 0.020890176 0.021932095 0.24023622 0.3386133 -0.2541294
-0.12065021 -0.0072590155 -0.5470386 0.071456306 -0.14863177 -0.4316076 0.5157521 -0.021729156
-0.38745442 0.39769563 -0.8824942 0.2887727 -0.34840295 -0.8249178 -0.29295957 0.3116013
-0.10272491 0.3364926 -0.2965468 0.41436315 -0.094753504 -0.27573225 -0.10752585 0.1373568
0.03656113 0.3700266 0.30535412 -0.002008393 -0.5277903 0.18048017 -0.13343908 -0.7048283
-0.018043214 0.43238488 -0.7462107 -0.10017506 -0.005935761 0.0060834056 0.38666043 0.6300979
-0.22210763 -0.4452396 -0.16105957 -0.16830055 -0.25749415 0.15937805 -0.5214776 0.062931225
0.14001411 0.01635972 0.4946564 -0.41199297 -0.036077466 -0.24007206 0.15698537 0.102322504
0.662725 0.22931077 0.19618623 0.20488784 0.4219293 -0.07296359 0.47769612 -0.2700632
0.22927195 0.39286375 0.25988874 -0.12305135 -0.20852384 -0.037346322 -0.07202611 0.4894352
0.04010109 0.43000466 0.49587116 0.998591 -0.3923263 0.6944188 -0.39055184 -0.58463305
0.00535652 -0.25769064 0.21803418 -0.32499504 0.034351427 0.27602354 -0.511166 0.43999875
-0.09579693 0.13990909 0.39249492 -0.4153341 0.32462794 -0.06258025 -0.440484 0.20405936
-0.08654142 0.28384858 0.2138605 0.61763644 0.06353463 0.6258052 -0.06316811 0.3770285
-0.0040225694 -0.168175 -0.38457963 0.097877525 -0.42042133 -0.3764983 -0.18030204 -0.32133
0.33470172 0.3149093 0.027393626 0.23830053 -0.10203062 0.08904859 -0.483483 -0.28891858
-0.27075878 0.40970618 0.025794588 -0.3488056 0.19003136 0.34820542 -0.2982754 0.14443082
0.67559546 -0.12022084 -0.16327031 -0.44680485 -0.023990998 0.09520105 -0.1419453 -0.29094446
0.29736984 -0.04017968 -0.054663017 0.20886981 -0.13789454 -0.3561604 0.14937656 -0.0053224135
0.6063352 -0.14582248 -0.5354811 0.11553644 0.35887983 0.0023654327 0.03907604 -0.055615954
-0.16808333 -0.47009197 -0.08834429 -0.1313137 0.034187376 0.6349201 -0.20982957 0.0732217
-0.89999676 -0.07960615 0.13983336 0.4729944 0.5261806 -0.42482898 0.13446458 -0.08512832
-0.11419969 -0.44885805 -0.19772223 -0.3676117 0.07906661 0.061249003 0.21297759 -0.27915025
-0.83972967 -0.0019277055 0.4535027 0.12971045 -0.6691616 0.091535 0.5011594 0.23509896
0.18514527 0.33686638 0.61908245 0.37470776 -0.6622754 0.09021499 0.22788097 0.26487628
0.27264407 0.42376718 0.24501082 0.12506351 -0.6797525 -0.2856776 -0.037882384 -0.13988759
-0.1816149 -0.07627071 0.22869827 -0.054611932 0.049205862 -0.5269998 0.2001764 0.24787818
-0.3533062 0.4883976 -0.111474834 -0.52661186 -0.07767311 -0.21413405 -0.4548834 -0.42320165

static_variable_selection.single_variable_grns.encoder_length.fc1.bias f4 [16]
00000000: be5f 64bb 8dd4 873c 7337 873c 301c a93c
00000010: 548d e7bc c6de 313c f0c1 c93c 2dc6 9cbc
00000020: fc43 a53b 07e7 1ebc 95ad 523c f654 b0bc
00000030: c736 8d3b b058 86ba bdc5 fe3b 8d76 9dbc
-0.0034847106 0.016580844 0.016505932 0.020643324 -0.028265633 0.010856336 0.02462861 -0.019137466
0.0050435048 -0.009698636 0.012858768 -0.021524888 0.0043095085 -0.001024982 0.007775037 -0.019221568

static_variable_selection.single_variable_grns.encoder_length.fc2.weight f4 [16, 16]
00000000: 6acc 4ebe bb70 37bf c873 51be b921 18bf
00000010: 20a0 97be 4c92 f13e d384 ae3e bee3 1e3e
00000020: b5f4 0a3f df21 7a3e ef3f 9abe fe52 b8be
00000030: f278 b63e c492 bfbe 0fcd 81bf ecf1 f53e
00000040: 4054 ce3e eaaf 1bbe c5b3 843e 21e9 9fbe
00000050: d347 6cbe 1c4b b1bd ce34 8bbe fc7c 5c3e
00000060: 87dd 39bd d35c b4be 7bfb 37bd cf92 bcbe
00000070: 32a5 57be 5676 6ebe 069e 3fbe 47d0 643e
00000080: 6e8c 273e d5b5 703e 53ae d53d be4b 9fbe
00000090: 44f0 773d 219a 333f 3f92 85be 394e 93be
000000a0: 05b0 2a3e 460e 823e 74b7 da3e 01aa dbbe
000000b0: 2e60 0bbf 5b11 99be 5062 d43e ef35 713d
000000c0: b84a dc3d 308e a2be eea9 f5be b488 90bd
000000d0: b305 c9bd 8fe8 edbe e7ed f1be 4416 c3bc
000000e0: de4d a63e 3041 8abe ace4 3f3e 9e23 cb3e
000000f0: e215 dbbe a806 8bbb 44ff 6b3e 8102 ab3e
00000100: 8256 8b3e 9247 02bc 4b60 0f3e 44e9 98be
00000110: 6c37 a13e 0de8 48be dea2 093e 8e15 8cbe
00000120: f40d 85be 8c50 0b3e 4597 e7be b5f5 93be
00000130: 1f3c 0d3f 12b9 c8be 1344 da3e c91b d33e
00000140: 8664 423e 3fd4 e6bd 0a5a ebbe 4c71 02be
00000150: cd69 393e 0531 08be 2522 fabd 74d2 073e
00000160: 9939 45be 894d 593e 3f8f 16bf 3238 91bd
00000170: 02a7 17bf 6bb0 57bb 2236 bcbe 0419 d93e
00000180: 7b34 0ebe 0c92 273d 2448 25bd 3a11 a03e
00000190: b158 99be c051 cbbd 5c03 af3e 5fbc 9bbd
000001a0: 939d 123e a445 5abf fc35 55be ae50 48be
000001b0: 4bf4 733e ba40 86bf c9dd 5c3d 2c4a 1bbe
000001c0: 11b5 0fbf 164c 7a3e d070 18be 52c5 a8be
000001d0: a4c4 64be 5ce6 9d3d 643d 24be a2a7 8fbd
000001e0: 13a2 d2bd 84ce 1cbf 62b4 42be a5e1 93bd
000001f0: b62e dbbe efe9 403e c7d5 6dbd 93ef 783d
00000200: 6f75 5e3d a223 b23e ebfe 223e 7ea0 123e
00000210: 3d40 bc3d c95d 323d ec5c 92bd 594d 09bf
00000220: 7a41 873e a169 3dbf 4256 ad3d 2cac e3be
00000230: e6a1 bd3d e3f9 cbbe e6c0 8a3e a02e 4c3c
00000240: 8db9 8bbe 3051 333d abb8 8fbe 1ab5 6a3d
00000250: 3a23 71bd c17c 503d 33c7 733e cb87 8ebe
00000260: 4080 793e 743a 243f b0dc dfbe ee93 173e
00000270: e066 debe 4d4e 6dbe 862e 26bf 32cd bfbe
00000280: cb5c bebb 067d 2e3f fed4 a2be 2b08 9c3e
00000290: ea18 39be e2bc de3e 4330 a3be efdd 883e
000002a0: d8d3 febd f4cb 1a3e 4511 40bc a500 e83d
000002b0: c0a1 acbe ad77 0f3f 3dab 273f d14a bdbe
000002c0: 58ca 78be 409f 823e 5c0a 63bd bfb8 c2bc
000002d0: a759 2abd f3cf a33e bf55 a0be 6a17 31be
000002e0: d2dd 76bf b91f f6bc 1856 913e d226 d9be
000002f0: 8655 0bbf 7519 76be cec3 0d3e ce14 65bd
00000300: 5a88 0cbf 9dda 933e 99fc 43be c2df a2be
00000310: 9892 233e 2ba7 2b3f ff72 383e b1ac fd3c
00000320: f76a e83e a086 17bf 4f55 8f3f 0527 84bd
00000330: bb99 04bf 355c 2f3e 8dab d63d b21d f03e
00000340: ba46 dfbe 39e3 16bf 03a1 24be d1cb aebe
00000350: c534 05be 871e b03d cc6b c53e 995d 09bf
00000360: 3b7b f73e 8cdf 9ebe d6fc 05be f703 a1be
00000370: 0b61 7a3e 89e7 863e 812c 36bf 1301 72be
00000380: f626 dbbe bb3e 953e 48ca 113f 6512 3abe
00000390: 36c6 1d3f d8f9 56be c55f 82bf e6cf ca3e
000003a0: 428f aabe 37f4 17bd ce0d 49bd a865 2e3f
000003b0: 5c71 57be 5a4b e9be a8cd bd3e fc49 24be
000003c0: 0158 0fbe 3183 bcbe 6a1e 363f f3dd 4c3d
000003d0: 9e57 013d 4404 fe3a 2044 f23d 1145 a53d
000003e0: 2f2f 593e 712e 0dbf ab1d 6fbf 078a 48be
000003f0: b8e7 5cbe 3865 1ebd ed06 af3e 7e72 863d
-0.20195165 -0.7165639 -0.20454323 -0.59426457 -0.29614353 0.47181928 0.34085712 0.15516564
0.54279643 0.24426983 -0.30126902 -0.36000818 0.3563915 -0.3741666 -1.0140704 0.48036134
0.40298653 -0.15203825 0.25918403 -0.3123255 -0.23074274 -0.08656904 -0.27188724 0.21532053
-0.04537728 -0.3522707 -0.044917565 -0.36830756 -0.21059111 -0.23287329 -0.18712625 0.22345077
0.16362163 0.23506863 0.1043364 -0.31112474 0.06053187 0.7015706 -0.2608814 -0.28770617
0.16668709 0.25401515 0.4271809 -0.4290314 -0.54443634 -0.29896054 0.41481256 0.058889326
0.10756439 -0.31749105 -0.4798121 -0.07057324 -0.0981554 -0.4646649 -0.47251818 -0.023814328
0.32481283 -0.2700286 0.18739575 0.3967561 -0.42790133 -0.004242737 0.23046595 0.33400348
0.27214438 -0.007951634 0.14001577 -0.29865468 0.31487596 -0.1961977 0.13441035 -0.27360195
-0.25987208 0.13604945 -0.45232597 -0.28898397 0.5516986 -0.39203697 0.42630062 0.41232136
0.18983659 -0.112709515 -0.45967132 -0.12738532 0.18106766 -0.1329995 -0.12213544 0.13263875
-0.19260253 0.21220984 -0.58812326 -0.070907965 -0.5923921 -0.003291155 -0.3676005 0.42401898
-0.13887207 0.040910766 -0.040352 0.31263143 -0.2995048 -0.09927702 0.3418225 -0.07604288
0.14317922 -0.85262513 -0.20821375 -0.19562027 0.23823659 -1.0488503 0.05392245 -0.15165013
-0.5613566 0.24443087 -0.14886785 -0.32963043 -0.22340637 0.07709953 -0.16039044 -0.07014395
-0.102848195 -0.6125262 -0.19014123 -0.07220773 -0.42809075 0.18839239 -0.058065202 0.06077535
0.054311212 0.3479281 0.15917556 0.14319035 0.0919194 0.04354647 -0.0714663 -0.5363365
0.26417142 -0.739893 0.08463718 -0.44467294 0.09259395 -0.39839086 0.27100295 0.012462288
-0.27290002 0.0437786 -0.28070578 0.05730162 -0.058871485 0.050900225 0.23806457 -0.27837977
0.2436533 0.6415169 -0.4372306 0.14802524 -0.43437862 -0.231744 -0.6491474 -0.3746124
-0.0058094016 0.6815952 -0.31803125 0.30474982 -0.1807591 0.4350348 -0.31872758 0.26731822
-0.1244275 0.15116864 -0.011722867 0.11328248 -0.33717155 0.56041986 0.65495664 -0.36971143
-0.24295938 0.25512123 -0.0554298 -0.023769734 -0.041589405 0.3199459 -0.3131542 -0.17294088
-0.9643222 -0.030044423 0.28385997 -0.4241243 -0.54427373 -0.24033149 0.13844225 -0.055928044
-0.54895556 0.28877726 -0.19139327 -0.3181134 0.1597389 0.67051953 0.18012618 0.030966135
0.45394108 -0.59189796 1.1197909 -0.06452755 -0.51797074 0.17125018 0.104819395 0.46897656
-0.43608648 -0.58940464 -0.16077046 -0.34139875 -0.13008411 0.08599573 0.38558805 -0.53658444
0.48336205 -0.31029928 -0.1308473 -0.31448337 0.24451081 0.26348522 -0.7116166 -0.23633222
-0.42803162 0.29149422 0.5694928 -0.1817108 0.6163057 -0.20993745 -1.0185477 0.3961174
-0.33312422 -0.037098136 -0.04908543 0.68123865 -0.21039337 -0.455653 0.37070966 -0.16043848
-0.13998415 -0.3681884 0.7114016 0.050016355 0.0315777 0.0019379933 0.118294 0.08069814
0.21209405 -0.5514899 -0.93404645 -0.19583903 -0.21572769 -0.03867075 0.3418497 0.065648064

static_variable_selection.single_variable_grns.encoder_length.fc2.bias f4 [16]
00000000: df15 a5bc 8c9b 08bc 8e07 bd3a 319e 2fbc
00000010: 5afa 1b3b df49 c7bc 6a04 f43a b613 113b
00000020: 3743 2f39 b594 a33c c739 fbba 194a 7c3c
00000030: 0ffc b83b 88e2 583c 28fd 37bc 73d5 853c
-0.02015203 -0.0083378665 0.0014421807 -0.010718868 0.0023800344 -0.024327217 0.0018617038 0.0022136993
0.0001671434 0.01996837 -0.0019166999 0.015398526 0.005645282 0.013237603 -0.011229791 0.016337132

static_variable_selection.single_variable_grns.encoder_length.gate_norm.glu.fc.weight f4 [32, 16]
00000000: 387e 5fbe 30cd 833c 6950 9fbe 73f0 3cbd
00000010: 027c d9bd 7ddd be3e 19b0 863e 3630 403e
00000020: 7e1f ae3b ab4d c6bd 9e84 833d a43d 8abe
00000030: cc89 27be 279b 3dbd f4c8 dabd c913 a0be
00000040: 64e1 093e 18df 8e3e 74c8 59be 89a8 933d
00000050: fca4 37bd 9e92 d7bc a9b3 083d 76a1 9d3e
00000060: d3aa 5f3d ec94 7abe 155f efbd f9b7 423e
00000070: ed96 ab3d 26ff edbb 75fb e3bc 07c5 12be
00000080: 446d debd d23d 3fbe 86ed 5b3d aaf2 a23d
00000090: 4944 8f3e f41b 9cbd d6b3 8c3c 0b49 5a3e
000000a0: 33ce 183e c3d2 273d 8752 cb3d 8f84 763c
000000b0: dab5 a3be b6b4 a13c 19b6 91bd 6f64 a73e
000000c0: b503 b63e 6b70 cd3d fa14 ab3e 4600 2ebe
000000d0: 508b ae3e 5f4b ad3e 9585 44bd 761d a1be
000000e0: 77e3 0bbe 2794 8dbd 253e 01bd 1281 b3be
000000f0: 23f5 443d 1872 e6bd f7b5 f5bd 62f0 18be
00000100: c8ad 6fbd 5c93 a8be 5d67 45be bc08 d23c
00000110: f343 733e dac0 a73e 5f09 8dbe a055 073e
00000120: 9d5c 5dbe d59e 8cbe 24aa b6bc ca9d 53be
00000130: df50 a2be ccab a5be e592 6fbe 5164 973e
00000140: 832f 503e ea90 f4bd 72d6 6abe 0bb6 8abe
00000150: 554d 3abe 06df 09be 8d40 4a3e 2384 e13d
00000160: 8b04 f9bd 23f4 7c3e bb59 6fbe aa31 99be
00000170: 4b49 5e3d bd6b 38be 158b ab3d 43b6 a33e
00000180: 449d 47be b836 87be 2846 fa3d 2784 9dbe
00000190: 15c1 943e 252b 42be 6467 473e f3ae 81be
000001a0: 5019 70be fb0b c63c 7860 1b3e 484a 963e
000001b0: 62aa a43e 1c22 3bbd 3c56 e1bc 1d4b 123d
000001c0: 48c7 e2bd 50c1 a8bc 7042 b9be f339 a4be
000001d0: 3f5f 5b3e ce7f 78be 1e10 a03e daaa 773d
000001e0: 8b3e db3d 0897 933e 1ef7 23be 148e 96bc
000001f0: 34a4 733d 9b58 aa3d 889e 98be a479 c33d
00000200: 9899 4cbe 1272 523d cdff 813e 1549 3cbc
00000210: 4955 80bc 9dd6 4bbc 7fbf 913e f2ea 4d3e
00000220: 466f 433d 7f1d 45be d0b8 4dbe 731f 873e
00000230: 4486 8f3e f62c 5b3e 3ef1 94be a474 8c3e
00000240: fc70 54bd 7fe9 803e bcc2 963e 1b7f 9e3c
00000250: 9416 13be e240 9f3e 9883 2ebe c3d5 773e
00000260: dfc0 a3be 4557 0abe f66e 97be f9dc 0bbe
00000270: 59d7 053e 2a32 89be bfb8 93be 9705 813e
00000280: 9bad 3c3e e6e4 9f3b 0ec2 6abe b400 87bd
00000290: 6094 edbd 14ce 683e 1955 f6bd e7a2 c0bd
000002a0: 5745 82be 1906 15be ed5b 3f3e 7a4c 5c3e
000002b0: 77ab a73d 1045 01be 7c18 a63e 405b 8d3d
000002c0: b402 15be d758 01be ab19 22bd 3fd2 2c3e
000002d0: e5ff ff3d 6559 823e c3f7 68bc f189 993e
000002e0: c2f7 03be 3a10 21be 2b72 02be 279e a9be
000002f0: 04bd 51be a585 a4be 380e babc 6cd0 c7ba
00000300: d434 cdbd 9dd3 86be 6215 a03e 62d8 bfbd
00000310: 2d54 053e 240b 713e 83bd 5cbe e900 1abd
00000320: 0012 303e 18e4 b23e faf0 b8bc da2b 893e
00000330: 5cfa 72be 0d6f 7bbe f511 9c3e 4eac 85bd
00000340: be1f b63e fff4 243d 4305 f8bd d99c b93e
00000350: bde4 9f3e ea60 513d fe3a 67be 4ac8 97bc
00000360: dd03 38be fb3e 923e 8f38 063b bbbd 4e3d
00000370: c845 783e fab1 083e 1715 7abe 0716 993e
00000380: 5688 5a3e 1b4c 60be ed7d 843e 2869 aa3d
00000390: 154d 70bd b733 85be e130 5ebd 4f7f b1be
000003a0: 6c9c 5a3e 7a1e 773e 41e6 cfbd 50c6 ab3e
000003b0: a08c 19be 78af 643d c485 6ebe 576a 0cbc
000003c0: bda3 163e f5eb 293e b7ed 91bc 901e 50be
000003d0: e98d 8a3e 81f9 713e 40ff 493d d6d5 2abe
000003e0: 8c56 d33d 3729 3cbc e28b 9f3e b549 4d3d
000003f0: 5040 8cbc dd1f fc3c 6cfe 3c3e 666a 763c
-0.21825492 0.016089052 -0.31116036 -0.046127748 -0.10619356 0.37278357 0.26306227 0.18768391
0.0053138128 -0.09682783 0.06421779 -0.27000153 -0.16361159 -0.046290543 -0.1068286 -0.31265095
0.13464886 0.27904582 -0.21267873 0.0720988 -0.044835076 -0.02631503 0.033374462 0.30787247
0.05460627 -0.24470872 -0.11688057 0.19015492 0.08378396 -0.007263082 -0.027829865 -0.14332972
-0.108606845 -0.18675926 0.053693317 0.07956441 0.27981785 -0.07622519 0.017175596 0.21316926
0.14922409 0.040972482 0.0992785 0.015046253 -0.3197468 0.01973949 -0.071148105 0.32693812
0.35549703 0.10031208 0.3341444 -0.16992292 0.34090662 0.33846566 -0.047978956 -0.3146779
-0.1366099 -0.069130234 -0.031553406 -0.3505941 0.048085343 -0.112522304 -0.11997598 -0.14935449
-0.05851534 -0.32924926 -0.19277711 0.02563893 0.2375639 0.32764322 -0.27546212 0.13216257
-0.2161736 -0.2746493 -0.022297926 -0.2066566 -0.31702325 -0.32357633 -0.2339588 0.29568723
0.20330624 -0.11941703 -0.22933367 -0.27092013 -0.18193562 -0.13463983 0.19751187 0.11011531
-0.1215907 0.24702506 -0.23374073 -0.29920703 0.054269116 -0.18009849 0.08376137 0.31974992
-0.19493586 -0.26408935 0.122204125 -0.30764887 0.2905356 -0.18961771 0.19473034 -0.25328788
-0.23447156 0.024175635 0.15173519 0.29353547 0.32161242 -0.045686826 -0.02750694 0.035716165
-0.11073166 -0.020599991 -0.361835 -0.32075462 0.21423052 -0.24267504 0.31262296 0.06046567
0.107052885 0.28826165 -0.16012236 -0.018378295 0.05948277 0.083176814 -0.2980845 0.095446855
-0.19980466 0.051378317 0.25390473 -0.0114920335 -0.015665667 -0.0124413045 0.28466412 0.20109156
0.04771354 -0.19249533 -0.20090032 0.2639118 0.28032124 0.2140387 -0.29090303 0.2743274
-0.051865563 0.25178143 0.29445446 0.019347718 -0.14364082 0.3110419 -0.17042387 0.24202637
-0.31983086 -0.13509853 -0.29576844 -0.13658513 0.1307043 -0.26796085 -0.28851888 0.25199577
0.184256 0.0048795817 -0.22925588 -0.06591931 -0.11600566 0.22734863 -0.1202795 -0.09406071
-0.25443527 -0.14553107 0.1868741 0.21513548 0.08187001 -0.12624002 0.32440555 0.0690217
-0.14551812 -0.12631546 -0.03957526 0.16877078 0.1249998 0.25458828 -0.014219227 0.29988053
-0.12887481 -0.15728846 -0.12738864 -0.33128473 -0.2048226 -0.32133213 -0.022711858 -0.001524461
-0.10019842 -0.26333323 0.31266314 -0.093674436 0.13020392 0.23539406 -0.21556668 -0.037598524
0.17194366 0.34939647 -0.022575844 0.2679127 -0.23728317 -0.24554081 0.3048245 -0.06527005
0.35571092 0.04027271 -0.121103786 0.36252478 0.312292 0.051117815 -0.22581097 -0.018528122
-0.17970224 0.28563675 0.002048049 0.05047391 0.2424537 0.13349143 -0.24422108 0.29899618
0.2134107 -0.21904032 0.25877324 0.08320838 -0.05866726 -0.26016018 -0.054245833 -0.3466744
0.21348733 0.2413272 -0.10151339 0.33549738 -0.1499505 0.055831403 -0.23293215 -0.008570275
0.14710899 0.16593917 -0.017813547 -0.20324159 0.27061394 0.23630334 0.04931569 -0.16683134
0.10319242 -0.011484436 0.3116141 0.05011912 -0.01712051 0.030776912 0.18456429 0.015040016

static_variable_selection.single_variable_grns.encoder_length.gate_norm.glu.fc.bias f4 [32]
00000000: 79bf b0bc 1238 6d3c 8691 a3bb 608e 02bd
00000010: 5d33 d0bb 6b4a f1bb a3a2 c13c 323f 103d
00000020: 1644 5fbc 7a83 ae3c 8f8d 11bc 47de a53a
00000030: cd8e 3c3b 9d61 a4bc f40d 223c 7ee8 1d3b
00000040: 6ac0 61bc b6c3 1e3c 01c9 8fb6 589b e43c
00000050: df12 d6b9 bcd1 a0bb 98dc 923c dbcb c8bc
00000060: ad3d 623b 0bfb 93bc a041 80bc a46f e3bb
00000070: 0288 9cbb a60d 673c 9510 7cbb 9546 323c
-0.021575676 0.0144787 -0.004991713 -0.03187406 -0.006353779 -0.0073636076 0.023637122 0.035216518
-0.013627073 0.021302927 -0.008883848 0.0012654745 0.002877164 -0.020066077 0.009891022 0.0024094875
-0.013778785 0.009690216 -4.285132e-06 0.027906105 -0.0004083132 -0.004907815 0.017927453 -0.024511268
0.0034521625 -0.018064043 -0.015656292 -0.006940799 -0.0047769556 0.014102375 -0.0038462032 0.010881086

static_variable_selection.single_variable_grns.encoder_length.gate_norm.add_norm.norm.weight f4 [16]
00000000: e49b 783f 1021 813f 7dff 803f 8d69 7e3f
00000010: 1249 803f 2dfa 7f3f a2c7 783f 5ca4 853f
00000020: a629 853f 66fd 7c3f ea2d 7e3f 3838 803f
00000030: fffb 803f 52d7 813f bca5 803f c82c 7f3f
0.9711287 1.0088215 1.0077969 0.9937981 1.0022299 0.9999111 0.97179615 1.0440784
1.0403335 0.98824155 0.9928881 1.0017157 1.0076903 1.0143836 1.0050578 0.99677706

static_variable_selection.single_variable_grns.encoder_length.gate_norm.add_norm.norm.bias f4 [16]
00000000: e767 f3bc 00e6 413c 3be4 babb f8cf 04bd
00000010: 49b7 c6bb cd7c fabb f87a cb3c fe34 3b3d
00000020: 60c9 21bc 9da0 6f3c a953 73bb 56bf ab3b
00000030: df47 aa3b 085b 59bc 4f4f df3a 3324 8a3b
-0.02971263 0.011834621 -0.0057034767 -0.032424897 -0.0060643298 -0.007644272 0.02483891 0.045704834
-0.009874672 0.0146256955 -0.0037128723 0.005241315 0.005196556 -0.013266332 0.0017037186 0.004215741

static_variable_selection.single_variable_grns.체중(kg)_center.fc1.weight f4 [16, 16]
00000000: cb51 4cbd f54c 9ebe 2213 d63e d795 5a3e
00000010: 409f a6bc 96cf 19bf 7eae 86be 52ca 033f
00000020: 4d06 843e 8618 e4be e943 74be f62f 973d
00000030: f08d 613f 0088 d13d 3bb6 03be 71b7 9d3e
00000040: 810d 5dbe 9d8a 26be 940b 533e 3160 4e3b
00000050: 9b09 ef3c f990 c2bd 096b 8e3e 252c 4c3e
00000060: aa1e 143d e315 b7be 7f6e a2be 8e39 fa3e
00000070: 1067 e93e d5da f0be 723c a93e 567f ccbe
00000080: ab01 043f 26f6 36be 9985 9fbe a0c5 a9be
00000090: a30f d0bc 8563 a5bd 3268 34bf ab04 e83d
000000a0: eff2 9d3e 221a e03e d483 e2bc 35fd 96be
000000b0: c778 303e d80d 893c 9ef0 203f b255 97bd
000000c0: ca87 483f b968 63be a987 ad3e dc62 423e
000000d0: da38 0dbe 0673 033f bc54 313e 99e2 a33e
000000e0: eadf 973e 20db 02bf 32d2 653e a240 31bf
000000f0: ca1f aabd 1ce4 7ebe d220 3a3e 4edf 2cbf
00000100: cf84 4d3e 84ab 203e 7665 0cbf 498e d23d
00000110: cdb4 0f3e 1dbe 0e3e d9dc a63d 92d0 ccbe
00000120: df46 83bd 33cd 29be e55f 36bc e87c a03e
00000130: 275e 3e3d 3d6b 33bd b9e8 ac3e cb6f 823e
00000140: 08c2 25be 3e85 1cbd 04a5 a43e e795 9c3e
00000150: 9edf c33e 3fa5 b83e a63d c6be daa1 b3be
00000160: 6837 8a3c 9c41 4cbe d58b b9be 9a10 20be
00000170: 621c 7b3e 24b9 4a3e 42b2 453e 016d b03d
00000180: 7fcd 18bf 2aa8 6d3f abea 1ebe 65b2 dd3d
00000190: f46b acbd fc7d 6b3e 9d17 e93e d6b1 463e
000001a0: 4900 dabd b494 eb3d c68a f53e d460 2bbe
000001b0: 2a70 bc3e fb4d 1ebf bce0 983e d547 9cbd
000001c0: 1e49 77be 6dd4 2abf a811 f03e 9870 91be
000001d0: 4061 10be 6f9e 693e 6a8d 44be 5bd6 3f3f
000001e0: e8db 043f b7d6 8abd dcb1 db3d 05fd a3be
000001f0: b84f 833e fed2 f23d 9e06 69bd c6af 3b3e
00000200: cf0b af3e 670c 3d3d 4b6b 25bf e3f9 babd
00000210: 0be5 c83e 4a26 f13e 378d 113e 5bac 0b3f
00000220: 7d80 55be 869b 093e 21e1 23be c284 05be
00000230: aea4 67be fe32 c9be b92d c23d 683f b53e
00000240: f630 c83c 5b7a 9d3e f795 9fbe 5064 75be
00000250: 699a c0be b139 0a3e 7b39 d2bd 640c 67bc
00000260: ad3d c43d d8c7 1dbd 2c5e 27be c61f 453e
00000270: 5e92 093f 8cfc 103e a664 083e f2e8 1cbe
00000280: 2ba4 22bf f076 2d3f c23e d33d 404c 38be
00000290: 30d4 4b3e 63cc 6ebf a9c7 8c3d 6fea ecbe
000002a0: dcb2 4e3e 4aa2 20be 4442 d4be 2fdb 373e
000002b0: b8e1 fd3d 36cb d7be dcdc c83d 961b 1e3e
000002c0: 1a00 05bf 9326 1fbd 72c8 4f3e 861b d43d
000002d0: 1279 183d 3d9d c13c c3a0 e73e b4f6 213e
000002e0: d389 7bbd 0c43 183f d582 8d3e e9e5 3ebe
000002f0: 3281 1cbe dbc4 21bd 635c a9bd 4609 423e
00000300: 0e1a 533e bb53 b53d 0c67 8abe 36c4 133f
00000310: 68b7 f8be dd02 41bd 54b5 603e ce31 7abf
00000320: a24c 213e 8c82 233e 3228 1dbf a718 753e
00000330: 3992 183f 8f10 48be 247d 0cbe 8dda b93e
00000340: 1c4c 7d3b e4d3 31be 60fc 9d3f 49b3 09be
00000350: ef56 cdbd a88b 2bbe 69d2 16be 5c20 dc3c
00000360: 4528 edbd 6c45 19bf 8733 753e ac44 033e
00000370: 1d7e c5be 6731 2d3d 5efa 6e3e a236 043f
00000380: 0751 69bd c866 103e 33e4 cf3d 0123 33bf
00000390: 13a9 6cbe d901 7bbe 2887 e03c 6027 0ebe
000003a0: 36ea 733f e3b1 a8bd 19f5 0ebe 7413 ddbd
000003b0: 07bf a6bc 29c7 173f 384f 793e 09ca b43e
000003c0: 4185 d2be 6a3e 0ebe f4d9 0abf 4827 903e
000003d0: 6672 93be 314d 33be 7b96 a03e b5c6 b53d
000003e0: b1ae b9be 21e3 a7be 474d c4be 1030 b9be
000003f0: addf 96be 08a3 473e d230 d93e deae 143d
-0.04988269 -0.3091809 0.41811472 0.21346222 -0.020339608 -0.60082376 -0.26305002 0.5148059
0.25786057 -0.4454996 -0.2385403 0.07382195 0.88107204 0.10231018 -0.12862484 0.30804017
-0.21587183 -0.16263814 0.20609885 0.003149044 0.029179385 -0.095003076 0.27816036 0.19938715
0.036162056 -0.35758886 -0.31724927 0.48872036 0.45586443 -0.47041956 0.3305393 -0.399409
0.51565045 -0.17867336 -0.31156614 -0.33158588 -0.025398081 -0.080756225 -0.7047149 0.11329015
0.30849406 0.43769938 -0.027650751 -0.29490057 0.17233573 0.016730234 0.6286715 -0.07389392
0.783322 -0.22207917 0.33892563 0.18983024 -0.13791218 0.51347387 0.1731748 0.32008818
0.2966302 -0.5111561 0.22443464 -0.69239247 -0.083068445 -0.24891704 0.18176582 -0.67528236
0.20070194 0.15690428 -0.5484232 0.10281045 0.14033814 0.1393971 0.08147592 -0.40002877
-0.06410002 -0.16582184 -0.0111312615 0.31345296 0.04647651 -0.043803442 0.33771303 0.25475916
-0.16187298 -0.038213007 0.32157147 0.30583116 0.38256544 0.36063573 -0.3871891 -0.3508442
0.016872123 -0.19946903 -0.36239496 -0.15631333 0.24522546 0.19797188 0.19306281 0.08614541
-0.5968856 0.92834723 -0.15519206 0.10825042 -0.08419028 0.22997278 0.45525828 0.19403777
-0.10644586 0.11502972 0.47957438 -0.16736156 0.36804324 -0.6183774 0.2985896 -0.076308884
-0.24148986 -0.66730386 0.4688847 -0.28406215 -0.14099598 0.22814344 -0.1919457 0.74936455
0.5189805 -0.06779235 0.10727283 -0.32028976 0.25646758 0.1185665 -0.056891076 0.18328771
0.34188697 0.046154406 -0.6461684 -0.09129693 0.39237246 0.47099525 0.14214025 0.5455987
-0.20849796 0.13438234 -0.16003849 -0.13038924 -0.22621414 -0.39296716 0.09481377 0.35399938
0.024437409 0.30757412 -0.31169102 -0.23964047 -0.37617806 0.1349857 -0.1026487 -0.014102075
0.09582076 -0.038520664 -0.16344517 0.19250402 0.53738964 0.14158839 0.13319644 -0.15323237
-0.6353175 0.6775961 0.103147045 -0.17997837 0.19905162 -0.9328062 0.0687402 -0.4627261
0.20185417 -0.15686908 -0.41456807 0.17954706 0.12396568 -0.42147225 0.098077506 0.1544021
-0.5195328 -0.038855147 0.20291308 0.10356812 0.037224837 0.023634547 0.4523984 0.15816766
-0.061410736 0.59477305 0.2763888 -0.18642391 -0.15283659 -0.039494377 -0.082695745 0.1894885
0.20615408 0.08853861 -0.27031744 0.5772127 -0.48577428 -0.04712187 0.21944171 -0.97732246
0.1575189 0.15967768 -0.6138946 0.23935185 0.5959812 -0.19537567 -0.13719612 0.36299554
0.00386501 -0.17365986 1.2342644 -0.13447298 -0.10026347 -0.16752493 -0.14728703 0.026870899
-0.115799464 -0.59871554 0.23945437 0.12819165 -0.3857278 0.042283442 0.23337695 0.51645863
-0.05696204 0.14101708 0.101509474 -0.69975287 -0.23111372 -0.24512424 0.027408198 -0.13882208
0.9527925 -0.08237054 -0.13960685 -0.10794726 -0.02035476 0.5928827 0.24346626 0.3531039
-0.4111729 -0.13890997 -0.5423882 0.2815497 -0.28798217 -0.17509915 0.31364807 0.08875791
-0.3626609 -0.32790473 -0.38340208 -0.3616948 -0.29467526 0.19495785 0.4242006 0.03629958

static_variable_selection.single_variable_grns.체중(kg)_center.fc1.bias f4 [16]
00000000: 6c94 613c 2e00 52bb d457 b13c afc6 ee3a
00000010: 3d45 aa3c 65bb cbbb 5166 943b df21 243c
00000020: 57fb cc3b 9000 ebbc 97ba c13b 1263 a0bb
00000030: 56d8 c53a e66b ba3b fa82 14ba 8703 8abc
0.013768297 -0.0032043564 0.021648325 0.0018217171 0.020784969 -0.0062174075 0.0045287986 0.010017841
0.006255548 -0.028686792 0.005912136 -0.0048946226 0.001509438 0.005689132 -0.0005665269 -0.016847385

static_variable_selection.single_variable_grns.체중(kg)_center.fc2.weight f4 [16, 16]
00000000: 1072 ad3e 9893 bd3d d6ca ed3d 358f 81be
00000010: e39b 1dbe 4336 313f 23bc 65be dde4 38bf
00000020: 9d0a e4be 6e66 17bf 7483 2ebe 0098 d5be
00000030: 6e65 91be 097a ae3e 8af5 4d3e 6fdd 8e3e
00000040: b087 8ebe c6d3 893e 5faf 11bf 2e79 2abf
00000050: c55b 043f 77b2 123f 0328 b4be 1ef7 d33e
00000060: 7495 013f 669b 05be 09ab 363d 7e7c 073e
00000070: 41ca 4c3e fb99 0fbe 4ed2 2c3e ea80 cfbe
00000080: 0810 b83d 3c37 ff3d abef 9c3e fe6e 4c3d
00000090: fdb4 143e f2f0 b5be c52d 59be 31c7 08bf
000000a0: 90ac 45be 8456 413d b5c7 553e a1bd 13be
000000b0: f3f1 df3e c635 7cbe d0ea 733e 445e a9be
000000c0: e788 91be 6e71 b83e 8d44 903e 7cad 5cbe
000000d0: d693 823e a3a0 c5be f7bf b3be 487c a53e
000000e0: b958 463d d8a6 3ebe 1b33 59be 6c2d cc3d
000000f0: f32b 153e 12dd b8be ada5 10bf 0447 733e
00000100: 3cce a83d 38f4 a73e a2ee 383f c3c7 ccbd
00000110: 8ade 5f3e f339 b6bd 2ff4 993d 14e6 1a3c
00000120: 147d 5fbd 30f6 96be 3840 443f 65fd 2bbc
00000130: 521b 113e 0a80 a0be 483f c83d e564 6d3e
00000140: 0bed 87be 5cb6 e8be 7815 503e 3707 073d
00000150: 041d 633d a783 413f 9b01 c73d 2c2a cebe
00000160: c92f 86bd f5d3 ad3c 45b1 21bf 39be 97be
00000170: 5cc6 f33e 5e77 cfbd e420 c8be 13a1 4f3e
00000180: b9e6 fcbe ef20 313e 9120 e7be 3781 1dbd
00000190: b0f7 43bf 8892 123f 58bb 33be 18b6 bebd
000001a0: a029 253f 0687 d33e 32d8 f0be a4ec 1fbe
000001b0: 4b72 b83e ea68 3fbf 5b68 15bd 91be 913d
000001c0: 4a6e aa3d 83af 413e 593d 743d cfde 863e
000001d0: 815d 52be da63 2a3e d962 9fbe b2d7 6d3e
000001e0: 8b90 14be fe57 01bf 2ec9 833d 6fbf a53e
000001f0: fc11 d63e bc2e 553e 5515 cdbe f86c df3e
00000200: 7a47 37be 42ac 8e3e 986a 1d3f 5d62 ad3e
00000210: db1b e1bb aae2 743e e77f c13e 3b39 0ebf
00000220: 764a 29bd d10a d7be 8bab 493e ab92 18bd
00000230: 99bd 643b 88a3 c03e 5599 e9be 0c8e fa3e
00000240: c2c2 bdbe d504 3f3d 2ba5 9b3d e2fd ca3e
00000250: f923 80be d4cb a83d 97ee 20be ac16 8d3e
00000260: 8c3b 06bf 500a 4abe 06da 383f 1dcf 60bf
00000270: 4e19 e53e 8893 423f 1a5f f1bd 4fb9 4d3e
00000280: f0a7 963d 3213 a0be 516a ec3e 7fa0 de3e
00000290: 66b8 103e e1b9 eebd 68aa 213e 5d79 c63e
000002a0: 876b a73d 7b3d cfbe 081a a3be 69fb bfbe
000002b0: d847 a93e 6480 0c3e 1ea5 a13d 28bf 66bf
000002c0: 22aa 8f3b e903 fe3c e740 c0bd abcd 79be
000002d0: c6cf 07bf eaac fc3e 2b1d 32bf 8730 e23c
000002e0: 3ec5 dc3d 5caf ca3d b376 4bbe b278 3abf
000002f0: 8d52 d0be 06bf dc3e 2801 54be 61fd 8d3e
00000300: cca7 d2bd 50e5 653e 2bd3 9f3d 1e56 9a3d
00000310: 1675 1fbf 8bd7 013e 4a8a d9bd 76c6 9e3d
00000320: c049 b5be 6428 97be 74b8 d4be db41 cfbd
00000330: ce98 fabe 5de1 83be ff25 003f 9efb 2b3f
00000340: 7a7c a3bd 8381 ff3e c502 bdbe cae5 a8bd
00000350: 6a03 e13b e3a5 773e 0411 b73e f452 ddbe
00000360: a5de 18bf c7f1 cfba 5406 633e 8e82 153e
00000370: 8dab 063f 0216 19bf bc3e 333c 204e 6cbe
00000380: ca41 05be 0370 18ba 5edf db3e 6e64 cabe
00000390: dd9f 68be 1bba ebbe e358 fabe 1b2e 2d3e
000003a0: 9700 27bf a163 45be dcd7 e8bd 82f4 85bd
000003b0: 6b64 5bbc aa36 323d d001 55be 6929 b53e
000003c0: f19f ae3e bcd1 bebc 0ea1 103e 5f5e 243e
000003d0: dea0 333f ca9c 6fbe 4e15 cc3e f0d7 d23e
000003e0: 2499 d9bd 80eb 01be a441 103e 46e6 90bc
000003f0: ca60 e13d ce8a e8bd ddd8 f0bd 06d2 3cbe
0.33876085 0.09256667 0.116109535 -0.2530457 -0.15391497 0.6922342 -0.2243505 -0.7222422
-0.44539347 -0.5914067 -0.17042333 -0.4171753 -0.28397697 0.3407748 0.20113197 0.27903315
-0.27837896 0.26919383 -0.5690822 -0.66591156 0.5170253 0.57303566 -0.35186777 0.41399473
0.5061867 -0.13047561 0.044596706 0.13231084 0.19999029 -0.14023583 0.168771 -0.4052804
0.08987433 0.12461707 0.30651602 0.049910538 0.14522167 -0.3553539 -0.21208866 -0.5342894
-0.19304109 0.04720165 0.20876963 -0.14427806 0.4373928 -0.24629888 0.23820043 -0.3307973
-0.2842476 0.3602404 0.281773 -0.21550554 0.25503415 -0.3859912 -0.35107395 0.32321382
0.048424456 -0.18618333 -0.21210901 0.09969601 0.14567547 -0.36106163 -0.565028 0.23757559
0.08242461 0.32803512 0.72239125 -0.09999039 0.21862236 -0.08897772 0.075172774 0.009454269
-0.054562643 -0.294847 0.7666049 -0.010497426 0.14170578 -0.31347686 0.09777695 0.2318302
-0.26548037 -0.4545163 0.2032069 0.032965865 0.055447593 0.7559151 0.09717103 -0.4026655
-0.06552083 0.021219233 -0.63161117 -0.29637316 0.47612274 -0.10130189 -0.39087594 0.20276289
-0.49394777 0.1729772 -0.45142034 -0.038453307 -0.76549816 0.5725484 -0.17551935 -0.093120754
0.6451664 0.41313952 -0.47039944 -0.15617615 0.360247 -0.7476946 -0.036476474 0.07116426
0.08321817 0.18914609 0.05962882 0.26341864 -0.20543481 0.16639653 -0.31130102 0.23226812
-0.14508264 -0.5052489 0.06434856 0.32372615 0.41810596 0.20818609 -0.40055338 0.43637824
-0.1789836 0.27865797 0.61490774 0.33864108 -0.0068697757 0.2391459 0.37792894 -0.55556077
-0.041330777 -0.4200044 0.19694345 -0.03724925 0.0034903048 0.37624764 -0.45624796 0.48936498
-0.3706265 0.046635468 0.07599863 0.39646822 -0.25027445 0.08242002 -0.15716015 0.2755636
-0.5243461 -0.19730496 0.7220768 -0.8781603 0.44745868 0.76006365 -0.11785717 0.20090221
0.0735625 -0.31264645 0.46174863 0.43481824 0.14132842 -0.11656547 0.15787661 0.38764468
0.08174806 -0.40476593 -0.31855798 -0.37496498 0.33062625 0.13720852 0.07892822 -0.9013543
0.004384295 0.031007724 -0.09387379 -0.24394862 -0.5305141 0.49350673 -0.69575757 0.02761103
0.107798085 0.098967284 -0.19869499 -0.72840416 -0.4068798 0.4311449 -0.20703566 0.27732375
-0.10285911 0.22450757 0.07803949 0.07535957 -0.62288034 0.1267988 -0.1062208 0.07752697
-0.3540783 -0.29523003 -0.41546977 -0.10119983 -0.48944706 -0.25757876 0.5005798 0.6718081
-0.079827264 0.49903497 -0.36916175 -0.08246954 0.006866862 0.24184375 0.3575517 -0.4322735
-0.5971473 -0.0015864902 0.22170383 0.14600584 0.52605516 -0.59799206 0.01094025 -0.23076677
-0.13013378 -0.0005815031 0.42943853 -0.39529747 -0.22717233 -0.46040425 -0.4889594 0.16912119
-0.65235275 -0.19276287 -0.11369297 -0.06540777 -0.013390641 0.043509163 -0.20801473 0.35383156
0.341064 -0.023293369 0.14123937 0.16051625 0.7016734 -0.23399654 0.39860004 0.41180372
-0.106249124 -0.12687492 0.1408754 -0.017687928 0.11004789 -0.113546 -0.117601134 -0.18439493

static_variable_selection.single_variable_grns.체중(kg)_center.fc2.bias f4 [16]
00000000: 565b 9e3c fa2c a13b b9f3 213c 5886 d33c
00000010: d070 0f3c 66fb f3bb 998c 86bc bb93 1bbc
00000020: c333 373c aaae 10bb c8da a03c bc2c 393c
00000030: 0c65 a7bb 3c72 8ebc d047 9ebc 8850 3f3c
0.019330662 0.0049186917 0.009884768 0.025820896 0.008754924 -0.0074457405 -0.016424464 -0.009495671
0.011181775 -0.0022076764 0.019635573 0.011302169 -0.0051084813 -0.017388456 -0.019321352 0.011676915
